app/models/pts/pytorch_model.pth (torch, 678945 bytes, 16 tensors)

encoder.weight_ih_l0 f4 [400, 38]
000000 82 78 8f bd b3 55 61 3d 53 94 e4 bc 8d ab 8b bc
       -0.07005407 0.05501337 -0.027902758 -0.017049575
000010 17 6c 66 3d 37 35 79 bd a7 01 26 bd 48 d9 a1 bd
       0.056255426 -0.060841765 -0.04052892 -0.07902771
000020 17 bc 91 bd a7 54 0d 3d 32 43 8a 3d f7 20 8c bd
       -0.071159534 0.03450456 0.06751098 -0.06842225
000030 0a 8c 27 bd bd 7c c5 bd e7 12 64 bc d3 f0 51 3d
       -0.040905036 -0.096429326 -0.013920522 0.05125506
000040 a0 c7 26 3d d2 ef 87 3d da 55 6a bd 77 fa 74 bd
       0.04071772 0.06637539 -0.05721078 -0.059809174
000050 ba a2 ab 3c e7 71 91 3b 73 93 7f 3c 8a 1e 20 bd
       0.020951618 0.004438627 0.0155991195 -0.039091624
000060 1a ac 77 3d da bd 60 bd 4d 54 16 3d 50 4a 36 3d
       0.060466863 -0.054868557 0.03670149 0.044504464
000070 07 05 86 bd 20 6a b1 bc b3 45 df bb 43 60 1d 3d
       -0.06543928 -0.02165705 -0.0068137287 0.03842188
000080 b3 c6 43 3c 1a b9 c4 bd 1f f1 81 bd c8 80 81 bd
       0.011949229 -0.09605618 -0.06344818 -0.06323391
000090 3d 18 55 bd 17 3d 10 bd da 5e 7d 3d 07 84 9e bc
       -0.05202507 -0.03521451 0.061858036 -0.019350065
0000a0 c2 f3 cb bd ed 59 98 3d 4d 68 b6 3c fd 54 ad bd
       -0.099586025 0.07439027 0.022266531 -0.08463476
0000b0 cd 04 5b bd 47 7e 0d bd e2 3f c8 3d 00 0e c4 3d
       -0.053471375 -0.034544256 0.0977781 0.09572983
0000c0 9a 60 60 3b fa c6 b0 bd 97 f5 8f 3d 7f fc 96 3d
       0.0034237267 -0.08631702 0.070292644 0.073723786
0000d0 e2 04 bf 3d 8d 99 61 3d b3 3c f5 bc ad 4d 28 bd
       0.09327103 0.055078078 -0.02993617 -0.041089702
0000e0 3f 6e a5 bd 4f 43 b7 bd ba ef 38 bd fa a6 8b bc
       -0.080776684 -0.08948385 -0.045150496 -0.017047394
0000f0 95 11 8f 3d 47 b0 2c 3d a3 b1 5d bd 30 95 6a bd
       0.069857754 0.0421603 -0.054124486 -0.057271183
000100 4b 8c b9 bd b2 42 a6 bd fd cc aa 3d 00 93 26 bd
       -0.09059962 -0.0811819 0.0833988 -0.040667534
000110 1d de 3e bd 82 d4 ab 3d f3 28 09 bd c5 fa b6 bd
       -0.046598542 0.08390142 -0.033486318 -0.08934549
000120 a3 3e 4d bd ad 58 94 3d fa 27 49 bd 65 74 8e bd
       -0.050108563 0.07243476 -0.04911039 -0.06955794
000130 d3 e5 bc bd 03 22 7c 3d 60 c9 b5 3d 03 c5 47 bd
       -0.09223523 0.061555874 0.088763 -0.04877187
000140 b3 ec e1 3b c5 a1 9a 3d 7d 5e 90 bd 38 af b6 3d
       0.006894672 0.07550386 -0.07049272 0.08920139
000150 bd 41 4c 3d 2d bd 1d bd 63 57 3f 3d 87 35 e2 3c
       0.04986738 -0.03851049 0.046714198 0.027613414
000160 30 5b 4c 3d 9a c2 71 bc 67 5e 52 bd 0d e9 09 3d
       0.04989165 -0.014755869 -0.05135956 0.03366952
000170 b3 78 5c 3c 2d 9c a1 bc 05 44 b4 bd 90 3a 1c bd
       0.013456511 -0.01972779 -0.08802036 -0.038141787
000180 83 4e 40 3d a0 b5 e3 bc e0 b1 a4 3d 2d f3 b3 3d
       0.046949875 -0.027796566 0.080417395 0.087866165
000190 18 4e cc 3d 87 81 3a 3d da 24 f0 bc 7d ff c1 3d
       0.09975833 0.045533683 -0.029314447 0.09472559
0001a0 cd 16 c1 bc b3 e5 df 3b 67 54 d3 bb 83 7f 44 bd
       -0.023570443 0.006832802 -0.0064492705 -0.047973167
0001b0 07 4e dd bc 5a a8 9f bc 07 0d 06 3d 27 b3 57 3d
       -0.027014745 -0.019489456 0.032727268 0.052661087
0001c0 fb 0d ca bd 9a 3b 36 bb ad 21 4a bd da a4 66 bd
       -0.09865948 -0.0027806521 -0.049348522 -0.05630956
0001d0 ba 4c af 3d e0 f4 9e bc 97 ff 92 bd 47 d0 91 bc
       0.08559556 -0.019403875 -0.07177656 -0.01779951
0001e0 73 0d 3b bc cd d1 ef bc 07 a8 d4 bc ab 84 c0 3d
       -0.011416781 -0.029274845 -0.025959028 0.094003044
0001f0 a0 3f 6c bd 20 31 62 bd 5d 4c cb bd 73 75 2b bc
       -0.057677865 -0.05522263 -0.099266745 -0.010465014
000200 e8 bd ab 3d f3 82 87 3c 33 3d 8c bc dd c9 c7 bd
       0.08385831 0.016541934 -0.017119026 -0.09755299
000210 40 c8 af bc f3 c7 9d 3c 2d ae ac 3d b0 07 50 bd
       -0.021457791 0.019260382 0.08431659 -0.05078858
000220 f7 52 b6 bd 9a 7d dc 3b 9a 64 32 3d cd 9c 1e 3b
       -0.08902543 0.00672884 0.043552972 0.0024202347
000230 e0 96 25 3d 33 d8 fa bb e3 91 0f 3d 50 6b 3b 3d
       0.04042709 -0.0076551675 0.035051238 0.045756638
000240 33 5b 52 3a 2d f9 9b bc 20 b5 7a 3d 67 08 b9 bb
       0.0008024454 -0.019039715 0.06120789 -0.0056467536
000250 ca 7b 56 bd 05 15 98 bd 05 f1 c5 3d ff cf 9e 3d
       -0.05236415 -0.07425884 0.096651115 0.07754516
000260 f7 af 3d 3d 60 90 96 bd 30 d2 31 bd 4d 8b e6 3b
       0.04631039 -0.07351756 -0.04341334 0.007035649
000270 80 6e f5 3b a2 3a aa bd 9b 6e 9c bd 47 b9 b4 bc
       0.0074899793 -0.083119646 -0.07638284 -0.022061003
000280 4b d5 b5 3d 63 7d c9 bd 9a 4e 53 bd 35 f7 b1 bd
       0.08878573 -0.09838369 -0.051588632 -0.08689729
000290 a7 c3 a4 3d e7 09 9c 3b e7 33 1b 3d f5 48 b5 bd
       0.0804513 0.0047619226 0.037891295 -0.08851806
0002a0 e7 5f 2a bd 53 85 d6 bc 28 19 85 bd 60 78 b9 bc
       -0.041595366 -0.02618662 -0.06498939 -0.022640407
0002b0 07 65 e3 bc 35 b4 8b bd 50 cd bb 3d 33 f7 30 3d
       -0.027758135 -0.06821481 0.091700196 0.043204498
0002c0 1a eb b8 bd 00 4c 30 3a 50 2f bc 3d 60 86 a7 3d
       -0.09029217 0.0006725192 0.09188712 0.08179927
0002d0 4d 51 d6 3c 65 29 aa 3d 33 90 3c 3b 9d 9c a5 bd
       0.026161814 0.08308677 0.0028772473 -0.08086512
0002e0 2b 3b bd bd 8b 08 8e 3d 3a c5 cc bd 1a fb b4 3d
       -0.09239801 0.06935223 -0.099985555 0.08836956
0002f0 8a ac 10 bd c7 09 b6 bd 5d 39 61 bd 67 40 4d 3d
       -0.035320796 -0.08888584 -0.054986347 0.050110247
000300 43 9c 8f bd 88 1e 97 3d 00 3f 7f bb 00 2d 52 3b
       -0.070122264 0.0737887 -0.0038947463 0.003207028
000310 9a 42 d4 bb a5 de 9e bd bf 4b b0 bd 83 fd ab 3d
       -0.006477666 -0.0775731 -0.086081974 0.08397963
000320 a0 18 ef 3c ea 4a 6d bd ad 7b ae 3c 65 b9 bf bd
       0.029186547 -0.05793277 0.021299208 -0.09361533
000330 13 cc 2b 3d fa b0 46 3d bf 76 81 3d 5f 25 9b bd
       0.041942667 0.04850862 0.06321477 -0.07575487
000340 80 a2 88 3b 1a b0 44 bc cd 3d f2 bc 8a 39 8d 3d
       0.004169762 -0.0120048765 -0.029570485 0.0689574
000350 1b 6f a0 3d da 9e 72 3c 00 5a d2 3c 78 c9 b8 3d
       0.07833692 0.014808381 0.025677681 0.09022802
000360 a7 57 6d bd e8 bd b7 bd 80 86 5a 3d f3 33 18 3d
       -0.05794492 -0.089717686 0.053350925 0.037158918
000370 c3 da 84 3d 00 36 87 ba 1f 37 c5 bd 87 0d cd bc
       0.06487038 -0.0010315776 -0.09629654 -0.025030864
000380 50 f8 c7 3d 07 51 8c 3d 23 12 3b bd 55 00 8e 3d
       0.09764159 0.06851392 -0.045671593 0.06933657
000390 5a 68 ba bc 80 1a 1b 3c 93 dd ff bc 43 d8 35 bd
       -0.022754837 0.009466767 -0.031233585 -0.044395696
0003a0 d0 0d c5 3d ef 20 c4 bd 40 55 45 3c 22 e6 b4 3d
       0.09621775 -0.09576594 0.012044251 0.08832957
0003b0 90 8b 48 3d c0 cf a8 bc ed 9b cf bc a7 3d 07 bd
       0.048961222 -0.020606875 -0.025342906 -0.03301778
0003c0 d0 de 1e bd 9d bd 14 3d 73 ec 97 3d 00 20 f8 b8
       -0.03878671 0.03631364 0.07418146 -0.00011831522
0003d0 27 e0 bd bd eb 52 95 bd 17 a8 95 3d e7 68 51 bc
       -0.09271269 -0.07291206 0.07307451 -0.012781358
0003e0 b2 23 94 bd 3d aa 18 bd a8 3f a1 3d d0 63 64 3d
       -0.07233371 -0.037271727 0.078734696 0.05575925
0003f0 1b db ba 3d 63 24 68 bd 2a 5b 37 bd f7 4f 2c 3d
       0.09123822 -0.056675326 -0.044764675 0.042068448

encoder.weight_hh_l0 f4 [400, 100]
000000 c0 e3 24 3c 3a 14 87 3c c0 f0 00 3c 98 ea 9b bd
       0.010064065 0.016489137 0.007869899 -0.076131046
000010 00 8c f0 bb 88 0c a4 bd 5a 16 fa 3c 4d d4 aa bb
       -0.007340908 -0.08010203 0.030528236 -0.0052132965
000020 3b aa 8d 3d a8 1a 87 3d cd 5c f0 3a 57 8b 8f 3d
       0.069172345 0.06596881 0.0018338204 0.07008999
000030 93 6e 8b 3d a3 5e 0c 3d 00 97 56 3d 00 87 f6 bb
       0.068082 0.03426994 0.0523901 -0.0075234175
000040 6d c9 c8 bd 0a 02 57 bd 4d d8 de bb 8d 11 1f bc
       -0.09804044 -0.05249218 -0.0068006874 -0.009708774
000050 0d ab f1 3c 20 32 fb 3c da f8 aa 3c 90 9b cc bd
       0.029500509 0.03066355 0.020870615 -0.09990609
000060 a0 29 85 3d 50 eb c3 3d 23 c3 76 3d 22 fa bb bd
       0.0650208 0.09566367 0.06024469 -0.091785684
000070 1f d1 86 bd 42 74 b0 3d 70 ea 65 3d 67 99 74 3d
       -0.065828554 0.086159244 0.05613178 0.05971661
000080 97 9b 00 3d 9a ca 88 bb 1d 96 af 3d 67 eb 5e bb
       0.031398382 -0.0041745426 0.08573554 -0.0034014822
000090 33 a5 73 3c cd 02 d1 ba f0 e2 42 3d 6d 71 85 3c
       0.0148709295 -0.0015946269 0.047579706 0.016289437
0000a0 fa 19 e0 3c b0 4d ab bd 6f b7 a5 3d 23 63 a2 3d
       0.027356137 -0.08364427 0.08091628 0.07929065
0000b0 2d 25 f4 bc 52 aa 87 bd 20 bb a1 bd 2d 94 49 3d
       -0.029802883 -0.06624283 -0.078970194 0.049213577
0000c0 e3 94 50 bd f7 46 8a bd 2d e6 8e bc b3 aa b6 bd
       -0.05092324 -0.06751817 -0.01744374 -0.08919277
0000d0 e5 7b c8 bd 73 93 6e 3c 2a e3 6a bd 33 1b 98 3d
       -0.09789256 0.014561522 -0.057345547 0.07427063
0000e0 a0 8d 5b bd 13 7a 3f 3d 70 4b 4d bd 5b fb c3 bd
       -0.05360186 0.04674728 -0.05012077 -0.095694266
0000f0 d0 b8 4c bd cb 06 a4 3d 7d a3 8b bd 50 8b 11 3d
       -0.04998094 0.08009108 -0.06818292 0.03553325
000100 00 e8 31 bc 00 91 0a bd 6a b6 17 bd d3 46 a0 3c
       -0.010858536 -0.03382969 -0.037039198 0.019565022
000110 5a 32 88 3c 6b d0 86 3d 00 75 49 bc a2 7d 89 3d
       0.016625572 0.06582721 -0.012295961 0.06713416
000120 cd 74 52 bd 6b 85 b2 bd 9a e2 2e 3d 3a ec 56 bd
       -0.05138092 -0.08716854 0.042696573 -0.052471377
000130 ba 61 5a 3d b0 2e 64 bd a7 47 65 bd ea 68 a6 bd
       0.053315856 -0.055708587 -0.055976536 -0.081254795
000140 cd 59 ac 3d 13 17 14 bd e7 fd f5 bc 00 32 38 bb
       0.08415566 -0.036154818 -0.030028297 -0.0028105974
000150 6d fd ac 3c ad ed fb bc 8d 29 6f bc cd cc 89 bd
       0.021116937 -0.030752981 -0.014597309 -0.06728516
000160 00 c1 f2 bb a3 42 6b 3d 73 53 7a 3c 4d 7f 67 3d
       -0.0074082613 0.057436597 0.015278685 0.056517888
000170 a3 f7 a9 3d cd 3d 1d 3d b3 9a 91 3c 0d 94 11 bd
       0.08299186 0.038389016 0.017773962 -0.035541583
000180 67 d6 ef 39 80 3a e1 bc 50 4a 9b 3d 0b ec b2 bd
       0.00045745375 -0.027493715 0.07582533 -0.08736428
000190 1a c9 cc bd db b1 93 3d 8d 71 ca bd ad 5e 55 3d
       -0.099992946 0.072116576 -0.09884939 0.052092243
0001a0 4d a4 e1 3b ed 4e 53 3d af bf b7 3d fa 4b 22 3d
       0.0068860413 0.05158894 0.089721076 0.03962324
0001b0 d0 45 72 3d 1a d5 91 3c b0 26 77 bd 1b 58 a8 bd
       0.05914861 0.01780181 -0.06033963 -0.0821993
0001c0 67 26 e3 38 4d 1b 07 3d c8 d5 aa bd aa 0d 38 3d
       0.000108313565 0.03298502 -0.08341557 0.044934906
0001d0 87 fd d4 3c e3 31 2e bd 70 19 43 3d 3a 55 bc bc
       0.025999798 -0.042528044 0.04763168 -0.022989858
0001e0 a7 7a c2 3c 0f c5 a8 bd fa 05 d7 bc 9a 85 87 3b
       0.023740126 -0.08240711 -0.026247967 0.0041357996
0001f0 e0 51 c1 3d ef 00 b7 bd 3d 1b 0a bd 2d ca c7 3d
       0.094394445 -0.08935725 -0.033717383 0.09755359
000200 d8 90 c4 bd ad af 6a 3d 63 c2 71 bd 88 79 9d 3d
       -0.09597939 0.057296444 -0.059023272 0.07689196
000210 25 56 c6 bd 9d 55 c3 bd 00 67 f1 3b cd ac 56 3b
       -0.096843995 -0.09537814 0.007367015 0.0032756806
000220 0d 04 f5 bc 93 83 17 3d f3 ab c9 bd c7 58 a6 bc
       -0.029909158 0.036990713 -0.0984725 -0.020306004
000230 5a 36 60 3d cd 8a f2 3c 12 63 a4 bd fa 94 b2 3d
       0.054739334 0.029607201 -0.08026709 0.08719821
000240 a7 35 77 3c aa d1 74 bd a0 9a af 3d 07 93 93 bd
       0.015088475 -0.059770264 0.08574414 -0.072057776
000250 67 71 11 bb b3 f4 c3 bd ba 7e 8d 3c 1a 85 c5 bc
       -0.0022192837 -0.09568157 0.017272342 -0.02411132
000260 65 c1 c5 bd 07 90 82 3d cd 79 4e bc 55 ee c2 bd
       -0.09656028 0.06375127 -0.012602282 -0.095181145
000270 cb e5 a5 3d 90 57 44 bd b7 7d 20 bd ef 0f b6 bd
       0.0810047 -0.04793507 -0.03918239 -0.08889758
000280 ef 9b c4 3d 67 fa f0 ba a8 49 8c bd f0 4f 44 bd
       0.096000545 -0.0018385173 -0.06849986 -0.047927797
000290 20 39 ad 3d 8d 76 1b 3d e0 37 bc bc b7 05 3f bd
       0.08458161 0.037954856 -0.022975862 -0.04663631
0002a0 d0 ae b1 bd ad 33 f5 3c 5b bb a7 3d d7 01 41 3d
       -0.08675921 0.029931867 0.08190032 0.047120895
0002b0 c7 4a 2c 3d 6d fb b0 bc 80 39 a1 3c 4a 6f c4 3d
       0.0420635 -0.021604264 0.019680738 0.09591539
0002c0 ed e5 c1 3d 27 d8 41 3c fd b0 bf bd 9a b4 24 bd
       0.09467683 0.01183132 -0.0935993 -0.040211298
0002d0 9a 2b 8a bc 5b ed a4 3d 0d 59 cf bc ed f9 8a bd
       -0.016866494 0.080530845 -0.025311017 -0.06785951
0002e0 8b 74 8b 3d 62 ec b5 3d 0d 27 43 bd b3 e9 56 bc
       0.06809338 0.08882977 -0.047644664 -0.013117242
0002f0 6d 57 b4 bc 5a ac a7 bd cd 3d 9e bc 67 b6 70 bc
       -0.022014344 -0.0818717 -0.019316578 -0.014691926
000300 a8 2c c3 bd e8 5f 90 bd 1f b1 c6 bd 87 84 ab bd
       -0.09530002 -0.07049543 -0.09701752 -0.08374887
000310 da c6 45 3c c7 f8 c1 3d 00 e5 6e bd c3 12 c1 bd
       0.012071336 0.09471279 -0.05832386 -0.09427407
000320 6d 5a 6d bd b7 66 46 bd 0d 3c 60 bc a7 5b 0d bd
       -0.057947565 -0.0484378 -0.013686192 -0.034511235
000330 5a 95 41 bc e3 0c 08 3d 48 5b cc 3d dd b9 4e 3d
       -0.011815393 0.033215415 0.09978348 0.05047022
000340 2a fb a0 bd 83 c5 57 3d ba 39 8e 3c ca 4b 64 bd
       -0.07860406 0.052678596 0.01736151 -0.05573634
000350 90 37 75 bd f3 86 57 3d 8a ad b6 3d 5a 80 3c 3d
       -0.05986744 0.052618932 0.08919819 0.046020843
000360 b3 e3 aa bb 78 56 92 bd 9f 3b bf bd 6a e3 10 3d
       -0.005215132 -0.07145399 -0.09337544 0.03537313
000370 d2 20 b2 3d 03 37 ae 3d f7 f8 2c 3d ca df 7c 3d
       0.08697666 0.085065864 0.04222962 0.06173686
000380 5d 28 75 3d 0b 04 86 3d 4f 1a ba bd 60 54 4d bd
       0.059852947 0.0654374 -0.09087049 -0.050129294
000390 e7 c7 1d bc 77 6a 62 3d d7 2f b3 3d cd 38 95 3d
       -0.00963018 0.055277314 0.08749359 0.072862245
0003a0 87 7e 84 bd 8a 29 b9 bd 37 c4 06 3d 47 95 3b 3d
       -0.06469446 -0.09041126 0.03290197 0.04579666
0003b0 33 63 60 ba 37 ea 67 3d 27 98 8c bc ba 10 24 3d
       -0.0008559704 0.05661985 -0.017162396 0.040055014
0003c0 80 89 cf bb 7a c6 27 bd e0 a7 72 3d 4a d7 61 3d
       -0.00633353 -0.040960766 0.05924213 0.055136956
0003d0 5a 42 a5 3d 3d e3 c6 3d 32 eb a0 bd 97 3c 1e 3d
       0.08069296 0.09711311 -0.0785736 0.038632
0003e0 33 bc 8d 3b 07 91 a3 3c d7 b5 76 3d 00 19 3c bb
       0.0043254136 0.019966615 0.06023201 -0.0028701425
0003f0 f3 36 57 bd cd 90 4f 3a 4d c4 a3 3b aa 5e c5 bd
       -0.052542638 0.00079180003 0.004997766 -0.09637196

encoder.bias_ih_l0 f4 [400]
000000 b3 f2 51 bc 82 73 b7 bd e7 f8 fe 3c 67 e0 99 3a
       -0.012814212 -0.08957578 0.031124545 0.0011739851
000010 a7 af 49 bd c0 fa fd 3c 3a 1a 94 bd 7d 45 2d bd
       -0.04923978 0.031003356 -0.07231565 -0.042302597
000020 f3 b6 0c bc 00 98 e7 b9 c7 a7 97 3d 80 6a ab 3d
       -0.00858854 -0.00044173002 0.07405048 0.08369923
000030 07 b3 bb 3d c0 41 71 3d 77 9b 9e 3d 80 86 6e 3d
       0.09165006 0.058900595 0.07744496 0.058233738
000040 00 02 87 3c 0d 28 8c 3c 37 b9 6b 3d 10 19 6a bd
       0.016480446 0.017108941 0.05754968 -0.057152808
000050 d3 2e c5 3d 63 6d 5a bd 28 2b c6 bd 1a cc 97 3b
       0.09628072 -0.053326976 -0.096762 0.004632485
000060 cd 2e 70 bd d3 9e 93 3d aa d8 11 3d c8 ad 90 bd
       -0.058638383 0.07208028 0.035607018 -0.07064396
000070 f3 52 a9 bd 1a e4 68 3c e0 ff ac bc b0 c7 27 3d
       -0.082677744 0.01421454 -0.021118104 0.04096192
000080 67 0c c0 bd cd 48 e9 bc 75 ef c3 bd 63 e5 2c bd
       -0.093773656 -0.028477097 -0.09567157 -0.042210948
000090 8b a2 86 bd 27 42 8e 3c cf a9 82 3d a0 21 7e 3d
       -0.06573971 0.017365528 0.06380045 0.062043786
0000a0 40 60 a0 bd ca 7a 1f 3d 00 5b 43 bc 4f ba 9f bd
       -0.07830858 0.03893546 -0.011923552 -0.077992074
0000b0 d3 69 c4 3d 80 c1 27 bc 3f 93 80 bd 83 1b 12 3d
       0.09590497 -0.010239005 -0.06278085 0.03567077
0000c0 b2 26 9a 3d 13 35 c7 3d ef 14 84 bd 67 e9 6d 3c
       0.07526912 0.0972692 -0.06449305 0.0145209795
0000d0 5d df 0c 3d 93 e5 2c bd 13 36 bf bc 0d ff 02 bd
       0.034392703 -0.042211127 -0.023341214 -0.031981517
0000e0 b3 82 1e bd e7 58 f5 3b b0 0a 17 3d b0 8d 19 bd
       -0.038698863 0.0074874046 0.036875427 -0.03748864
0000f0 a3 98 bb bd 00 4e 1c 3d 9a 4b de 3a 0d 9c f5 3c
       -0.091599725 0.038160324 0.0016959787 0.029981637
000100 00 46 9d bb 40 24 62 bd f7 ba 13 bd 37 e9 ba 3d
       -0.0047996044 -0.055210352 -0.036066975 0.091265135
000110 d3 c8 24 bd 9b 6d a9 3d a0 2d 7e 3d 07 b9 c1 bd
       -0.040230583 0.08272859 0.06205523 -0.09459119
000120 80 ac ba 3c d3 c6 9d bd 73 28 f1 bc af c5 90 bd
       0.022787333 -0.07703938 -0.029438233 -0.07068955
000130 b3 55 39 3c 0d 0c 82 bd a3 6b 05 3d a0 6e fe bc
       0.011311936 -0.06349955 0.032573353 -0.03105861
000140 17 2b 88 3d 15 6a a2 3d f0 4a 54 3d 9a 59 81 b8
       0.06648844 0.0793039 0.05182928 -6.167889e-05
000150 80 99 9c bb 62 02 c1 3d e7 20 6d bc 5f c7 8c 3d
       -0.004779041 0.094242826 -0.014473177 0.068739645
000160 07 82 75 3d 2d 41 0e 3d 0d 58 9f bd a3 75 9b bd
       0.059938457 0.034730125 -0.07780466 -0.07590797
000170 33 0f 5d bc ad 75 9c 3d 73 12 30 bc 40 b9 23 3c
       -0.013492393 0.076396324 -0.010746586 0.0099928975
000180 2d 5d c2 3d f7 ba 7f bd 3a db 87 3d cd c1 55 3d
       0.09490428 -0.062434163 0.06633611 0.052186776
000190 83 2a 73 bd e7 3e 9c bd 57 de cb bd 0a e8 36 bd
       -0.059366714 -0.07629185 -0.09954517 -0.044654883
0001a0 b8 f7 b5 bd c0 09 60 3d ba 40 f7 bc 67 dc 0d 3c
       -0.08885139 0.0546968 -0.030182231 0.008658505
0001b0 70 4e 1b bd 4b 82 98 3d b3 2e ee 3b d7 5a 31 bd
       -0.0379166 0.074467264 0.0072687506 -0.043299522
0001c0 35 9a 8c bd 5f a9 ba 3d dd c0 ab 3d 33 dc 48 3c
       -0.0686535 0.09114336 0.08386395 0.012259531
0001d0 f3 38 a0 bd 63 46 31 3d 9f a3 8a 3d 13 fb 94 bd
       -0.07823362 0.043280017 0.067694895 -0.07274451
0001e0 d3 e6 a9 bc 47 34 97 3d 6d 66 8b bc d0 8c b0 bd
       -0.020739948 0.07383018 -0.017016614 -0.08620608
0001f0 90 e4 9c bd 6d 9b e8 bc c7 c0 a8 bd 30 12 46 bd
       -0.07660782 -0.028394425 -0.08239894 -0.04835719
000200 9d 9b 9f bd bf 8b 8b 3d ed 20 25 bd c0 71 64 bc
       -0.07793353 0.06813764 -0.040314604 -0.013943136
000210 d2 52 a2 bd ba 8b 8e bd f3 38 94 3c 2f d5 b5 3d
       -0.07925953 -0.069602445 0.018093562 0.08878552
000220 bd 5f bd bd 3a ef 80 bc 08 35 b1 3d 83 55 1b bd
       -0.09246776 -0.015739072 0.08652693 -0.037923347
000230 20 f7 c5 3d ba b6 6e 3d 73 7e 9c 3c fd d3 ad 3d
       0.09666276 0.05827973 0.019103264 0.08487699
000240 0d fa 4b 3c 32 56 82 bd 6d 8d 3e 3d 53 93 8f bc
       0.0124497535 -0.06364097 0.046521593 -0.017526304
000250 65 be c3 3d cd fa 96 3c ba 60 b8 3c 07 5b 97 3d
       0.09557799 0.018430138 0.02250706 0.07390409
000260 e3 41 89 bd b0 19 b7 3d 67 20 65 bb 2d 64 80 3c
       -0.0670202 0.089404464 -0.003496194 0.015672768
000270 27 35 71 bc 67 1a 13 3a 77 8f 53 3d 93 f2 88 3c
       -0.014722145 0.0005611539 0.05165049 0.01671723
000280 cd 81 a3 bd fa cb c1 3c 6a 76 89 bd 67 ee c1 bb
       -0.07983742 0.023656834 -0.06712039 -0.0059183124
000290 73 1b 09 3d 00 12 ec ba d3 18 82 3c 67 ac 2e bb
       0.033473443 -0.0018010736 0.015880978 -0.0026653053
0002a0 0d fd 04 bc f3 7c 96 3d 77 91 97 bd aa b8 98 bd
       -0.008116973 0.07348051 -0.07400792 -0.07457097
0002b0 47 5b 87 3d 9f 5d b8 3d b0 6c 1f 3d d3 aa b6 3c
       0.06609207 0.09002232 0.03892201 0.022298252
0002c0 53 30 2e bd 33 86 a7 3c d7 eb 0d 3d 90 f4 8a 3d
       -0.042526554 0.020449733 0.034648743 0.06784928
0002d0 17 3f 47 3d 90 6b 72 bd a0 01 c7 3c f3 15 1e 3d
       0.04864415 -0.05918461 0.024292767 0.03859515
0002e0 4f f7 b6 3d a7 a7 b5 bd 0d 2c 82 bd b7 59 c8 3d
       0.08933889 -0.08869868 -0.06356058 0.09782737
0002f0 c7 1b ff 3c 93 58 a0 bd 1b c2 b3 bd 70 d9 12 bd
       0.031141175 -0.07829394 -0.08777257 -0.035851896
000300 73 c9 be bd 67 44 ea 3a d7 7e c4 3d e3 de 2b 3d
       -0.09315767 0.0017873169 0.09594505 0.04196061
000310 c0 cf 9d bc d3 43 86 bc e7 84 65 3d c7 5e ac 3c
       -0.019264102 -0.016389763 0.05603495 0.021041287
000320 20 c2 82 bc 73 de ba bd f8 5b 9d bd a3 97 bf bd
       -0.015961707 -0.0912446 -0.07683557 -0.09355094
000330 80 c8 e7 3b 1b 66 b5 3d e0 f3 bb bc 37 b4 cb 3d
       0.007073462 0.08857366 -0.022943437 0.09946483
000340 5a 6e b7 3d ed 0d 3b bd 00 ec a1 bd 30 70 24 3d
       0.08956595 -0.045667578 -0.079063416 0.040146053
000350 67 6f c4 3b 2d e4 b0 3d 1a 2c 52 3c c5 90 c9 3d
       0.0059947255 0.08637271 0.012827897 0.09842066
000360 4d c5 37 3d 83 4c 41 3d 33 c3 66 39 30 73 36 3d
       0.044865895 0.047192108 0.00022007227 0.044543445
000370 13 2f 0f 3d 8a c6 92 3d 23 f1 ba bd a3 78 71 bd
       0.034957003 0.071667746 -0.091280244 -0.05895294
000380 10 f9 75 bd 2a 74 84 3d 4d 6e 7b bd e5 d1 96 3d
       -0.060051978 0.06467469 -0.061384488 0.07364253
000390 33 33 ac b8 cd e0 2a bc 22 f8 99 bd 0a 10 40 3d
       -8.211136e-05 -0.010429573 -0.07518031 0.046890296
0003a0 dd 3a 88 bd aa 20 bd bd ba c2 ac bd 90 29 a8 3d
       -0.06651852 -0.09234746 -0.08435579 0.082110524
0003b0 db a6 93 3d 80 6a 20 bc da 19 e3 3c a2 df b6 bd
       0.072095595 -0.009791017 0.027722288 -0.08929373
0003c0 fa 18 f6 3c 18 35 bf 3d 28 f6 c9 3d a0 f4 b4 bc
       0.030041207 0.09336299 0.09861404 -0.022089303
0003d0 7a 51 88 bc 9b 6e c6 3d ad 32 0f bd 00 48 a0 3b
       -0.016640414 0.09689065 -0.034960438 0.0048913956
0003e0 35 f6 86 bd 2f 7c bc bd 23 9b 11 bd d8 27 aa 3d
       -0.06589929 -0.09203374 -0.03554834 0.08308381
0003f0 33 06 4d 3c 33 2f 72 3c 80 b6 c4 3d 4d 6a b4 bc
       0.012513685 0.014781761 0.096051216 -0.022023344

encoder.bias_hh_l0 f4 [400]
000000 45 87 9f bd 67 51 54 bc 07 1f 85 bd 4a 39 51 bd
       -0.077894725 -0.012958861 -0.065000586 -0.051080026
000010 37 ab c3 3d 83 c9 57 bd 1a fd 41 3c 0b 8b c6 bd
       0.09554141 -0.05268241 0.011840129 -0.09694489
000020 e7 37 cb 3d 10 0f a1 3d 20 d4 c7 3d ad 15 29 bd
       0.09922772 0.07864201 0.097572565 -0.041280437
000030 40 c7 15 bd f3 00 c2 3c 47 dd 40 3d 6b 0c ae bd
       -0.036566973 0.023682093 0.047086027 -0.08498462
000040 9a 28 0d bb ab fc c8 3d 8b aa ac 3d 9d a2 36 3d
       -0.0021539093 0.098138176 0.08430966 0.044588674
000050 b3 c1 55 bd 4a 93 28 bd ba c1 95 bd 7a 81 56 3d
       -0.05218668 -0.04115609 -0.07312341 0.052369572
000060 9a c9 a7 3c 67 87 57 3c d7 e1 05 bd 80 1e cf bc
       0.020481873 0.013154841 -0.03268608 -0.025283098
000070 50 b0 50 3d 0a 53 12 3d 4f 97 95 3d 7a 47 bc bd
       0.050949395 0.035723723 0.073042504 -0.091933206
000080 92 57 8e bd 93 37 c2 bd d2 19 9e 3d 33 37 37 bd
       -0.069502965 -0.09483256 0.077197686 -0.044730376
000090 2d aa be 3d 10 e2 18 3d 00 0b 1d 3b 03 ab c0 bd
       0.09309802 0.037324965 0.0023962855 -0.09407618
0000a0 2a 61 21 3d 87 0f 89 bd 33 7a 5e 3b 2b 07 a4 3d
       0.039399303 -0.06692415 0.0033947348 0.0800918
0000b0 67 ee 37 3d 6a c0 60 bd 80 a8 e0 3b 83 c1 32 bd
       0.044905093 -0.054871 0.0068560243 -0.04364158
0000c0 a8 ff 9c bd e5 57 91 3d ed 72 2f bd ad 13 cd 3c
       -0.0766595 0.07096843 -0.04283421 0.025033796
0000d0 33 50 01 3d 77 7b 87 3d cb ee 9f 3d 4a 4f 40 bd
       0.031570625 0.06615346 0.07809218 -0.046950616
0000e0 50 34 c3 bd ca 52 a7 bd 33 ca 89 3c a0 ee 5b bd
       -0.09531462 -0.08170088 0.016820049 -0.053694367
0000f0 67 1a cf 3b 30 4a 35 bd 33 50 fe 3c f3 8d fe bc
       0.006320286 -0.044260204 0.031044101 -0.031073546
000100 20 d1 71 3d f8 29 80 3d ff bc a1 3d 10 d8 c8 3d
       0.059037328 0.06258005 0.07897376 0.09806836
000110 e7 fe c5 bb 7a a1 7b 3d 93 a5 c2 bd 5d 31 15 3d
       -0.0060423496 0.061433293 -0.09504237 0.03642403
000120 f7 fb 4e bd 2a b8 9b 3d 80 91 37 3c b3 c6 13 bc
       -0.05053326 0.07603486 0.0112041235 -0.009019542
000130 60 ca 23 bd 00 69 80 bb e7 51 44 3c 1b 9e 81 bd
       -0.03998792 -0.003918767 0.011982418 -0.06328984
000140 00 59 96 3d b3 d8 27 3c a7 b0 9b 3d 27 37 09 3c
       0.07341194 0.010244536 0.07602053 0.008374966
000150 b2 44 90 bd ea b9 a6 3d 48 5c b9 3d 9d 86 93 3d
       -0.070443526 0.08140929 0.090508044 0.0720341
000160 1b 98 b0 3d d3 ee 51 3d 9a 91 33 bd aa 9a 1d 3d
       0.08622762 0.05125315 -0.04384003 0.038477577
000170 4d a3 dd 3b 00 87 2a 3b 4b 0a a5 3d 27 f3 03 3d
       0.0067638517 0.0026020408 0.08058604 0.03221431
000180 4d 81 f9 3b 33 7f 35 3b e0 5e 0c bd ea 5b 99 3d
       0.007614291 0.0027694225 -0.034270167 0.07488234
000190 cf 3f a5 3d 9a 99 03 bd 80 ee 28 bd 0d b9 0f bc
       0.08068811 -0.032128908 -0.041243076 -0.008772147
0001a0 d0 81 1c bd 9b 78 90 bd bb 31 84 3d 57 24 94 bd
       -0.038209736 -0.07054254 0.06454798 -0.07233494
0001b0 1b ff 9a bd f3 9f 9b 3d ea 53 3b 3d e3 50 10 3d
       -0.07568189 0.07598867 0.045734324 0.03523339
0001c0 f7 b5 41 3d 7b 76 c8 bd 67 2e 07 3b 53 ae bd bd
       0.047292676 -0.09788223 0.0020627023 -0.09261765
0001d0 67 92 fe bb ca 22 af bd 0d 07 b7 3c 87 9e a3 3c
       -0.0077689174 -0.08551557 0.02234223 0.019973053
0001e0 68 8a be bd e2 04 b8 3d e7 6f 30 3d 90 77 b1 bd
       -0.09303743 0.08985306 0.04307547 -0.08665383
0001f0 c0 4d a6 3c 8d 71 72 3d 00 6d 58 bd 77 e0 70 3d
       0.020300746 0.05919032 -0.052838326 0.058807816
000200 8d 3d b3 3d c0 11 8c 3c 33 92 0f bb ca 93 9f bd
       0.08751974 0.017098308 -0.002190721 -0.077918604
000210 f5 28 88 3d 73 11 05 3d e0 96 7f bd d3 6f 9d bc
       0.06648437 0.032487344 -0.062399745 -0.019218361
000220 ad 1b 9b 3c f0 60 b5 bd f3 3d a0 3d 20 5d 1e 3d
       0.018934095 -0.0885638 0.07824316 0.03866303
000230 98 43 ae bd b3 15 81 3c 33 c0 16 3d 9a 35 6a 3a
       -0.08508986 0.015757417 0.03680439 0.0008934379
000240 f2 ac 88 bd b7 b1 2e 3d 5a 18 7e 3d 4a 7e c6 bd
       -0.06673612 0.04264995 0.062034942 -0.096920565
000250 2d c2 bb 3d 77 fb 0d bd 80 bc 46 3c d7 03 94 3d
       0.091678955 -0.034663644 0.012129903 0.07227295
000260 03 84 20 bd 9d ae 39 bd 9a 94 52 bb 1d e6 cb 3d
       -0.039188396 -0.04533254 -0.003213203 0.09956
000270 80 0e 24 3c 22 9c 9f 3d 00 7e 2f 3c 55 d6 be bd
       0.010013223 0.07793452 0.010711193 -0.09318224
000280 9a 12 d4 3c 70 85 a4 3d a2 c7 98 bd 67 8c 91 3a
       0.025887776 0.08033264 -0.07459952 0.0011104465
000290 7a 27 7c 3d ef 13 b1 bd 37 d8 a9 bd 9a 2e 28 bb
       0.061561085 -0.0864638 -0.08293193 -0.0025662542
0002a0 d5 9c a8 3d 13 65 76 3d 1a ae 20 3d c0 b4 91 bc
       0.08233038 0.060154986 0.039228536 -0.017786384
0002b0 20 38 e6 3c 45 b7 84 bd d7 15 0d 3d 45 50 a0 3d
       0.028102934 -0.064802684 0.034444656 0.0782781
0002c0 fa 02 c7 bc e0 40 9b bc d2 2f bf 3d 73 7c c8 3d
       -0.024293412 -0.018951833 0.09335293 0.09789362
0002d0 cd 58 a5 bb ea eb 1e 3d f7 d5 40 3d 60 dc 28 bd
       -0.0050459863 0.038799204 0.047079053 -0.04122579
0002e0 67 c5 17 3b d0 3c 7a bd 33 e1 21 bc 80 28 f5 bc
       0.0023158432 -0.06109315 -0.009880352 -0.029926538
0002f0 ba d7 63 3d 35 a9 96 bd e7 26 9f 3d 53 00 35 bd
       0.055625655 -0.073564924 0.07771092 -0.044189762
000300 b7 45 29 3d df 9d 8f bd e7 5a f3 3c 30 68 43 3d
       0.04132625 -0.070125334 0.029706432 0.047706783
000310 8d 0a b6 bd b2 e9 b4 3d 7d 73 73 3d d3 4b bd 3d
       -0.08888731 0.08833636 0.05943631 0.09242978
000320 43 95 7e bd c7 7d a5 3d c7 14 4d bd 55 4b 8c 3d
       -0.062154066 0.08080631 -0.050068643 0.06850306
000330 95 67 8b bd 80 95 b9 3b 77 d6 53 3d da 7e 31 3d
       -0.06806866 0.0056635737 0.0517182 0.043333866
000340 a0 d1 d1 3c 67 1b 23 3c 00 5b cd 3c db fd af bd
       0.025612652 0.009955264 0.025067806 -0.08593341
000350 37 33 80 bd d3 57 b2 bc 13 ed a5 3c 7d e2 85 bd
       -0.062597685 -0.021770393 0.020254647 -0.0653734
000360 e7 3a 9c 3c b7 04 91 3d 00 3c 6d 3c cd 5c 55 bc
       0.019071056 0.070809774 0.014479637 -0.013022614
000370 a0 9c 0b bd 6d 68 be bd c7 ff ca bc ba a8 f1 3c
       -0.034084916 -0.092972614 -0.024780167 0.0294994
000380 d0 56 04 bd a0 76 37 3d 18 3c 93 bd aa dd 54 bd
       -0.032309353 0.044790864 -0.07189196 -0.051969208
000390 30 b5 11 bd a2 9f a2 bd ba ef 59 3d 23 da c0 3d
       -0.035573184 -0.07940604 0.053207137 0.09416606
0003a0 c7 4b 0b bd a7 3f 78 bd 97 0b 73 bd 90 f6 3f 3d
       -0.034007814 -0.06060758 -0.059337225 0.046866
0003b0 8d 33 34 bc 9a c4 70 3d 50 4e 32 bd ad e7 e0 3c
       -0.010998619 0.058781244 -0.043531716 0.027454222
0003c0 18 50 89 bd 7d 68 36 3d e7 3a 28 bd 47 ae 0f bd
       -0.0670473 0.04453324 -0.0410718 -0.035078313
0003d0 33 97 09 3c 60 c5 b4 bd c7 3a 34 bd 27 58 2d 3d
       0.008397865 -0.08826709 -0.044001367 0.042320397
0003e0 a0 54 c7 3d ca 65 2d 3d 87 51 c1 3c cd ac e6 3a
       0.09732938 0.0423334 0.023598446 0.0017599106
0003f0 67 f6 14 3d da 46 c4 bc c7 b5 dc bc 2d 11 c9 bc
       0.0363678 -0.023959566 -0.026942147 -0.024544323

encoder2.weight_ih_l0 f4 [200, 100]
000000 03 40 80 3d 1d e1 45 bd e4 73 9e bb 0c 52 a7 bd
       0.06262209 -0.048310388 -0.0048355926 -0.08169946
000010 da 9c c4 bd c6 46 fa bc ba 86 bd bd 37 29 e2 bd
       -0.096002296 -0.030551326 -0.09254213 -0.11043017
000020 88 29 03 bc bf e0 95 bc 48 dc db bd 75 b5 dd bd
       -0.008005507 -0.018295644 -0.10735375 -0.10825626
000030 4a d6 05 3e 3d 64 01 3e f5 fd 97 3d 24 11 ea bd
       0.13070026 0.12635894 0.07421485 -0.114290506
000040 01 6b 79 3d 74 c9 d8 bd e2 99 4f bd 27 5e e4 3d
       0.060893063 -0.10585299 -0.050683863 0.11150771
000050 38 68 83 3c 0b 97 f4 3d fd e3 5a bd f6 c5 e6 bd
       0.016040906 0.11942872 -0.053440083 -0.11268227
000060 61 cd ec bd eb 29 d3 bd fc e2 96 bb 34 2c 95 bd
       -0.115626104 -0.103107296 -0.0046046954 -0.07283822
000070 4f 1c bc bd e4 d5 9a bd 68 5e bb bd f7 b2 92 3d
       -0.09185087 -0.07560328 -0.09148866 0.07163041
000080 05 c1 f1 3d dc c7 02 be aa 6b 7c 3b 1b eb 0f be
       0.11804394 -0.12771553 0.0038516321 -0.1405453
000090 60 36 5c 3d e5 b3 f3 3c 91 ac e5 3d 0c 0f 0a be
       0.053762794 0.029748866 0.11214555 -0.13482302
0000a0 71 45 28 bc 40 b5 aa 3d 90 27 e5 bc cd d1 f5 3d
       -0.010270462 0.08335352 -0.027972966 0.12002907
0000b0 53 3e 55 3d ca 75 ed bd a8 c2 8e bd c7 50 ee bd
       0.05206139 -0.11594732 -0.069707215 -0.11636501
0000c0 a2 5c 37 3d f5 ea 61 bd 16 66 fa 3d 19 6b f0 bd
       0.044766076 -0.055155713 0.122265026 -0.11739177
0000d0 4e f9 93 bd 55 7a c2 3c f7 74 83 bd 4a 25 91 3d
       -0.072252855 0.023739973 -0.06418794 0.070871904
0000e0 91 49 95 3b 72 ab d0 3d 5f 05 99 bd 5e 1e c5 3d
       0.004555889 0.101889506 -0.074717276 0.09624933
0000f0 a1 23 01 3e 60 aa a7 bd 03 e2 1f 3d 62 db 9f bc
       0.12611248 -0.08186793 0.0390339 -0.01951379
000100 ad 2a f7 bc 7d 66 9f 3d 5c f3 d9 bc 76 a5 11 bc
       -0.030171717 0.0778322 -0.0266053 -0.008889547
000110 bd e3 32 3d e0 9d c6 bd 01 b1 ef bd cd 4c 36 3d
       0.04367422 -0.09698081 -0.11703683 0.044506837
000120 93 66 a3 bd 75 74 f1 3d 21 67 03 3e 21 d5 5b 3d
       -0.07978549 0.117897905 0.1283231 0.053670052
000130 e2 1f 8c bd 7c b2 ea bd 47 8c a5 bd c6 9c c5 bd
       -0.06842019 -0.114598244 -0.080833964 -0.09649043
000140 9a db b7 bd 4a 1d b2 3d 76 f3 09 3e 17 f5 f3 3d
       -0.089774325 0.08696993 0.13471779 0.119119816
000150 bf fe 29 bc a9 68 71 bd 1a 78 5a 3d c3 1e c2 3c
       -0.010375678 -0.058937702 0.053337194 0.023696309
000160 a6 1a fa 3d 97 2c 10 3e d2 d4 fb 3d a1 79 da bd
       0.12212114 0.1407951 0.12296452 -0.1066773
000170 9a 76 49 bd b2 1e 03 3d de 46 86 bc 90 37 09 bd
       -0.049185373 0.032011695 -0.016391214 -0.033500254
000180 92 ae 4b 3d bc bf 14 bd 39 1a dc bd d4 8d 0d 3d
       0.04972703 -0.036315665 -0.10747189 0.034559086
000190 c9 44 a1 bc a6 06 ab 3d 00 fd dd 3d 49 ee d8 3d
       -0.01968612 0.083508775 0.108392715 0.10592324
0001a0 21 39 ff bc 98 c2 b9 bc 2d 06 12 bd 7b a6 2b bd
       -0.03115517 -0.022675797 -0.03565042 -0.041906815
0001b0 5b 87 30 bd 0e 4d bb bd a3 a6 ae bd 37 65 8d bd
       -0.043097835 -0.091455564 -0.08527877 -0.06904071
0001c0 59 97 2f 3c 7a 75 ed 3c 87 4a c4 3d 9a 73 19 3c
       0.010717236 0.028986681 0.095845275 0.0093659405
0001d0 38 f3 0e 3e 5d 78 0a 3e 99 cd 87 bd 60 89 8a 3d
       0.13959968 0.13522477 -0.066310115 0.067644835
0001e0 c4 71 c1 bd 42 ce b5 bd 59 b1 07 3e 42 97 a4 bd
       -0.09445527 -0.08877231 0.13251247 -0.08036663
0001f0 d3 2a 45 bd e2 20 a8 3c 9a 22 f1 3d 9d 13 ab bc
       -0.048136543 0.020523492 0.11774178 -0.020883376
000200 a7 6e 1b bd 97 3f 6c 3d 2e ed 07 3e 3d 7b ef bd
       -0.037947323 0.05767783 0.1327407 -0.11693428
000210 1e 5f 0a 3e c4 0f 0d be 0a 8c 48 3d 96 69 83 bd
       0.13512847 -0.13775545 0.048961677 -0.06416623
000220 a6 3d fa bd c9 cf eb 3d 7b d2 c2 3d 9d 52 b1 bd
       -0.1221879 0.11514241 0.09512802 -0.08658335
000230 41 ab 57 bd f7 42 d8 3c f5 f0 ed 3d c8 3f a1 bd
       -0.052653555 0.026399119 0.116182245 -0.078734934
000240 1b 0c e8 bd 66 fe 6e bd ce c6 96 bd 6c 19 ec bd
       -0.11330434 -0.058348082 -0.07362138 -0.11528286
000250 91 d0 0c 3e f6 98 7d 3c 31 58 c5 3d 15 91 ab bd
       0.13751437 0.015478363 0.09635962 -0.083772816
000260 71 bb 12 3d e9 d7 88 bc 53 f1 45 bd 1e 1e 87 bd
       0.03582329 -0.016704516 -0.048325848 -0.06597541
000270 9b 3a 0a be a4 92 fe 3b 62 b6 bf 3d 95 bd db 3d
       -0.13498919 0.007768946 0.09360959 0.10729519
000280 e4 b2 0a bd fd 4c 61 bd 50 48 20 bd 37 0b fd bd
       -0.03386201 -0.055005062 -0.039131463 -0.12355655
000290 a9 3d e4 bd cf 60 04 be 3b 1f 4a bd 43 38 f7 bd
       -0.11144573 -0.12927555 -0.04934619 -0.12071278
0002a0 61 e9 25 bd 84 da 3e bd 3a ef 03 be 76 e5 a5 3d
       -0.04050577 -0.04659511 -0.12884226 0.08100407
0002b0 4f 89 fa bd a6 bf 10 bc 64 bf 32 3d d7 21 49 3d
       -0.12233221 -0.008834755 0.043639556 0.049104538
0002c0 b3 f5 a8 3d e0 6a ca 3d 39 48 0e 3d 1f d5 ee 3c
       0.082499884 0.09883666 0.034736846 0.029154358
0002d0 5e ec d8 3d 7b 84 6a bc 70 db b0 bd f0 69 86 bd
       0.105919585 -0.014313812 -0.086356044 -0.06563175
0002e0 5a 43 97 3d b4 78 7b 3c ca b3 50 3d be 89 fd bd
       0.07385893 0.015348602 0.05095271 -0.12379788
0002f0 12 f9 43 3d 68 e0 d3 3d c9 f4 df 3c 0d 94 8b bd
       0.047844954 0.103455365 0.027338402 -0.06815348
000300 ad 2c 52 3c ac 80 74 bc 9c a7 b8 bc 23 29 ee bd
       0.012828034 -0.014923256 -0.02254086 -0.1162894
000310 e7 1c 84 bd af a1 9d 3d 04 c8 96 3d 0b f6 88 3d
       -0.06450825 0.07696854 0.07362369 0.06687554
000320 a5 dc 22 bc 5b c2 19 bd 2f 4f b3 bd 5e f4 57 3c
       -0.009940301 -0.037538867 -0.087553374 0.01318082
000330 5d 56 7c bd 5b f0 55 bd 18 1e 12 3c 84 ba a2 3d
       -0.0616058 -0.052231174 0.008918308 0.07945731
000340 58 00 c2 3d ae aa 58 bd 07 26 b3 3c df a9 90 bd
       0.09472722 -0.052897148 0.021868719 -0.0706365
000350 aa 56 e4 3d 2e 57 0a 3d d6 fd d4 bd a9 0d bd 3d
       0.11149342 0.033774547 -0.10399978 0.09231121
000360 80 68 0b 3e 92 0d 53 bd 88 92 c0 3c e5 3f ba bc
       0.13614082 -0.051526614 0.023507372 -0.022735545
000370 3b 87 84 3d 74 70 b3 bc cb ab ca 3d 2c 77 f0 bd
       0.06471106 -0.021904208 0.09896048 -0.1174148
000380 26 76 2d bd 59 60 06 be 2b 42 0e 3e a7 eb 4c bd
       -0.042349003 -0.13122691 0.13892429 -0.050029423
000390 12 08 b6 3d 97 32 c9 bd 67 9b 5a 3c ef d5 0d 3c
       0.08888258 -0.09824102 0.013342715 0.008656963
0003a0 27 79 07 3e cd e4 c4 3c 12 8f 50 3d 9e ec d6 bc
       0.1322981 0.024034882 0.050917692 -0.026235875
0003b0 bb 70 da 3c 88 d0 a8 3d e9 81 32 3c 43 db 28 3d
       0.026665082 0.08242899 0.010895231 0.04122473
0003c0 12 fd 74 3d ff 3e 38 3c c5 7c 98 bd 10 98 85 bd
       0.05981166 0.011245488 -0.07445673 -0.06523144
0003d0 8e be c5 bc bd 18 da 3d 95 b1 0c 3e dd 1f cd bd
       -0.024138715 0.1064925 0.13739617 -0.10015843
0003e0 84 95 a3 bd 09 c8 df 3d 27 97 62 bd 50 b4 a3 3d
       -0.07987502 0.109268256 -0.05531993 0.07993376
0003f0 87 5f c7 3d e7 ae 03 3e 54 dc 20 bd c6 56 95 bd
       0.09735017 0.12859689 -0.03927262 -0.07291941

encoder2.weight_hh_l0 f4 [200, 50]
000000 c9 2c a2 3a 2a b6 32 bd b6 d6 11 3d 30 58 f6 3d
       0.0012372966 -0.043630756 0.035605155 0.12028539
000010 61 65 86 bc 60 11 b2 bd 74 c1 c8 3d 25 28 5a bb
       -0.016405763 -0.0869472 0.09802523 -0.0033288088
000020 f9 ed 7f 3c f1 c8 bb 3c 5b d3 09 3c 57 8c 08 be
       0.015620702 0.022922965 0.0084122075 -0.13334785
000030 57 22 e2 bd a1 8a 8b 3d 7c bc 93 bd df b9 85 bc
       -0.11041706 0.06813551 -0.07213685 -0.016323982
000040 04 04 14 3d 97 06 0e be de 22 08 be d5 55 fb bd
       0.036136642 -0.13869701 -0.13294551 -0.122722305
000050 76 9f ad bd 0b 31 85 bd 63 8e 09 3e 62 9b 34 bd
       -0.084776804 -0.06503495 0.13433222 -0.044093497
000060 bd db 49 bd 76 a7 03 3e 35 50 f7 bd c5 ad 0d be
       -0.049281824 0.1285685 -0.12075845 -0.13835819
000070 d4 c1 f8 bc 05 bd 94 bd 4a 0f 08 be 9e 6c 45 bd
       -0.030365862 -0.07262615 -0.13287082 -0.04819929
000080 b7 e3 e3 bd 1a a7 2b bd b0 8c 6f bc a8 68 85 bd
       -0.111274175 -0.041907407 -0.014620945 -0.06514102
000090 d0 22 b2 bd 0e fb 0e 3e a8 6e ff 3c fa 96 d9 bd
       -0.08698046 0.13962957 0.031180695 -0.106244996
0000a0 27 54 cf 3d 9b a8 5c bd 51 a7 87 bd a1 8a 99 3d
       0.10123473 -0.053871732 -0.0662371 0.074971445
0000b0 ff 0d 03 be 4e 8f e3 3d f2 36 00 be 39 01 6c 3d
       -0.12798308 0.111113176 -0.1252096 0.057618354
0000c0 0e c1 11 bd 58 cc 90 3d 8f 5f b5 3d f8 3d 2f bd
       -0.035584502 0.070702255 0.08856117 -0.042783707
0000d0 43 aa 8f bd 48 d9 02 be 6c 25 23 3d 98 83 b8 bd
       -0.07014897 -0.12778199 0.03983061 -0.090094745
0000e0 31 6d dd 3d f6 43 a4 bc 3a d0 02 3e 0c 50 f7 3c
       0.10811842 -0.020051938 0.12774745 0.030189537
0000f0 e8 f6 40 bc 61 a0 f2 3d 2d fc c9 b8 c6 b2 25 bb
       -0.011777617 0.11846996 -9.631398e-05 -0.002528356
000100 ee ae 17 bd 5a b3 53 3d 72 b3 c6 3d 45 07 ca bd
       -0.03703206 0.051684715 0.09702195 -0.09864668
000110 ed e5 0f be 70 91 f4 bd 0e ee 5b bd ba dd 09 3e
       -0.14052553 -0.119418025 -0.053693824 0.13463488
000120 e7 c4 22 3d 9e 66 f1 bd 7b e3 88 bd df 4e 8c bd
       0.039738562 -0.11787151 -0.066840135 -0.06850981
000130 ff 3e 43 bd b3 c7 d2 3d a8 25 aa bd 9b 3f b8 3d
       -0.0476675 0.10291996 -0.083079636 0.08996507
000140 ca 09 7f 3d 39 f8 d8 3d 0f 72 94 bd ed c3 dc 3d
       0.062265195 0.1059422 -0.072483175 0.107795574
000150 0e 8f 59 bd 35 ce 9b bd 11 58 dd bd 88 85 02 3e
       -0.053114943 -0.0760769 -0.10807813 0.1274625
000160 85 72 9e bd 70 a0 ca 3d 9f 35 1b 3d da 00 f7 3d
       -0.077366866 0.09893882 0.037892934 0.12060709
000170 24 ef 30 bc 9b 41 df 3d 84 a0 56 bd 07 93 f5 bc
       -0.010799203 0.10901185 -0.052399173 -0.029977335
000180 36 a4 0f be 8e 56 49 3d dc e9 98 3d f2 09 bf bc
       -0.14027485 0.04915481 0.0746648 -0.023320172
000190 6c 0f 66 bd 21 42 ff bd 9c 8e 92 bd c2 ee dd 3b
       -0.05616705 -0.12463785 -0.07156107 0.006772847
0001a0 e1 8e af 3d 2d b2 88 3d 8f a5 f9 bd 8d 10 52 3d
       0.08572174 0.06674609 -0.12189781 0.051285315
0001b0 53 38 10 3e 86 81 af 3d 95 91 e4 3c 74 9b ca 3c
       0.14083986 0.085696265 0.02790145 0.024732329
0001c0 cb 54 0e be 2f 6a 0b 3e 4c b8 90 bb 5c 76 b0 3d
       -0.13899533 0.13614725 -0.004416501 0.08616325
0001d0 2b 5d 06 3e 0c 06 4b 3d 67 db bf bd c8 04 78 bd
       0.13121478 0.049566314 -0.093680196 -0.060551435
0001e0 58 ab eb bd 00 e3 f7 bd 8f b5 f9 3d 23 00 09 3e
       -0.115072906 -0.12103844 0.12192833 0.13378958
0001f0 59 22 da 3c d3 bd d8 bb a5 97 07 3d 73 69 cd 3c
       0.026627706 -0.0066144257 0.033103604 0.025074696
000200 56 9d bc bd d9 e4 0e 3e 76 b7 58 3d d5 04 19 bd
       -0.09209697 0.13954486 0.052909337 -0.037358124
000210 92 b8 a6 bd 61 1b 86 3d 95 5d d2 bd 9d 69 50 3d
       -0.08140673 0.06548191 -0.102717556 0.05088197
000220 79 b2 dc bd df b3 aa bd 77 b8 02 3e 3b b6 2d bd
       -0.107762285 -0.08335089 0.1276568 -0.042410117
000230 9c 2b 09 3e fa 57 c7 3d 25 19 fb 3d 0c 27 0f 3d
       0.13395542 0.09733577 0.12260655 0.034949347
000240 a5 45 d2 bd f2 49 79 3c 5d c1 5b 3d 31 e5 63 bc
       -0.1026719 0.015215384 0.053651202 -0.013909624
000250 03 c5 09 3e 35 71 05 3e e3 a4 71 3c 11 1f 64 bd
       0.1345406 0.13031466 0.014748785 -0.05569369
000260 d5 ec f5 ba bb 77 ee bd 63 f1 8e 3d fc 8f a2 bd
       -0.0018762598 -0.116439305 0.069796346 -0.07937619
000270 50 b2 cf bd 6d f3 b1 bd 4f d9 8f 3c 88 52 a8 bd
       -0.10141432 -0.08689008 0.017559675 -0.082188666
000280 43 5d 15 bd a4 72 63 3d 4c 94 18 3c e5 0b 09 3e
       -0.036465894 0.05552925 0.0093127005 0.13383444
000290 67 38 d8 bd d7 62 fd bd 81 e6 75 bd 5b ef 08 3e
       -0.10557633 -0.12372368 -0.06003428 0.13372557
0002a0 87 5c 6a bc a0 0f 23 bc 87 a5 10 3e c1 64 97 3d
       -0.014304287 -0.009952456 0.14125644 0.07392264
0002b0 03 38 99 bd da c3 61 3d 97 9e ab bd 8a 4c 0f be
       -0.074813865 0.05511842 -0.08379858 -0.13994041
0002c0 2e ca c2 3d 03 78 65 bd c9 4e bf 3d 9b 9d cd 3d
       0.09511219 -0.056022655 0.09341199 0.100398265
0002d0 b7 7d a4 3d 76 33 42 bd ef db 90 3d 32 3b ab 3d
       0.08031791 -0.04741236 0.07073199 0.083609
0002e0 d9 ce 75 3c fc 38 08 be 20 7d e1 bd fd 1d 59 bb
       0.01500293 -0.13302988 -0.11010194 -0.0033129447
0002f0 ad c1 70 bd ee 43 c8 bb 2a 84 45 3d df 25 b1 ba
       -0.058778454 -0.0061116135 0.048221745 -0.0013515315
000300 7b e9 36 3d ee 65 a4 3d 8d f7 b4 3c e4 af 46 bc
       0.044656258 0.08027254 0.022090698 -0.0121268965
000310 2a 35 90 3c ea 2f 84 3d 8b 22 2c 3d e8 83 53 bd
       0.017603476 0.064544514 0.04202513 -0.051639467
000320 a8 b0 d2 3d f1 ba 00 be 7a c1 e1 3d 20 b7 6c 3d
       0.10287601 -0.12571312 0.11023231 0.05779183
000330 83 1a 76 bc 70 fe c9 bc 66 98 8c 3d 96 4c 19 3d
       -0.015020969 -0.024657458 0.06865005 0.037426554
000340 7b 48 b5 bd 1d 95 8a 3d b8 f3 0b be 75 cf a0 bd
       -0.08851715 0.06766722 -0.1366719 -0.07852069
000350 2b 15 7a 3d b3 fe 39 bd 02 93 e3 bd 1f 67 b9 bd
       0.061055344 -0.045408916 -0.11112024 -0.09052872
000360 a3 d0 9e bd 27 bc ab 3c 14 13 0f 3e c8 d8 ae 3c
       -0.07754638 0.020963741 0.13972121 0.021343604
000370 7f c4 f0 bd 9b 81 01 be 53 22 be bd 4b 03 5f bd
       -0.11756229 -0.12647097 -0.092838906 -0.0544465
000380 21 88 d7 bd 3d 82 52 3c 5d 80 47 bd bb 8b cf bd
       -0.105240114 0.012848434 -0.0487064 -0.10134073
000390 16 9a da 3d 91 8d 4b bd 65 c7 ae 3d 27 8a b7 bc
       0.10673921 -0.049695555 0.08534125 -0.022404743
0003a0 64 0c 4f bd bd 0b 96 bc d2 ca 2a 3c a4 36 ae 3a
       -0.050548926 -0.018316144 0.010424333 0.0013291431
0003b0 a4 e3 d4 3d 90 6e 24 bd 4f bd 70 bd 50 8f e3 bc
       0.103949815 -0.040144503 -0.05877429 -0.027778298
0003c0 00 9a 82 bd d4 de 2a 3c 1d 6d d9 3d 39 69 6a 3d
       -0.063770294 0.010429103 0.10616515 0.057229254
0003d0 2d 20 00 3d db 3d 2c 3d 24 7a dd 3d 86 ae 05 be
       0.031280685 0.042051177 0.10814312 -0.13054857
0003e0 73 7f ab 3d 25 30 38 3d 27 e2 eb 3d 9d f5 8d 3b
       0.083739184 0.04496779 0.115177445 0.004332258
0003f0 96 01 a0 3d c2 97 11 bd 37 81 83 3c a6 f3 01 3e
       0.078128025 -0.03554512 0.016052825 0.12690601

encoder2.bias_ih_l0 f4 [200]
000000 ee c0 ca 3d 79 a6 c9 3d 8f dc 9e bd 18 94 d1 3d
       0.0990008 0.09846205 -0.07756912 0.10233325
000010 ad 1f bd bc f7 15 a3 3d eb ce 16 bd 23 12 af bd
       -0.023086393 0.07963174 -0.036818426 -0.08548381
000020 71 b3 f4 bb 59 ad 96 bc f3 46 19 3d 13 0e 5f 3d
       -0.00746768 -0.018393205 0.037421178 0.05445678
000030 95 8a 3a bd 96 7f f2 3d dd a2 97 3d 2f 6c a9 bd
       -0.04554232 0.11840741 0.074041106 -0.082725875
000040 e2 b2 eb 3d b2 f3 d7 bc c4 29 a9 bb e9 ea a0 bc
       0.115087286 -0.02636132 -0.0051624496 -0.019643264
000050 cf d6 91 3d b3 2b 02 be bc f8 36 bd bc d2 bb 3c
       0.071210496 -0.12711982 -0.044670805 0.022927634
000060 9a c7 5f 3d f1 c6 a7 bc 39 eb 14 3d 73 34 ae bc
       0.054633714 -0.020480605 0.03635714 -0.021265244
000070 aa e9 0b 3e c5 e9 cc bd 9b 19 09 be ec e2 cc 3d
       0.13663355 -0.100055255 -0.13388674 0.100042194
000080 6f 75 02 bc ea 9d 37 bc d9 d6 f5 bd 9c e2 8f 3d
       -0.007962569 -0.011207083 -0.120038696 0.07025644
000090 09 a2 10 3e 7f c9 47 bd 9d b5 c0 bd ac 09 a1 3d
       0.14124312 -0.048776146 -0.0940964 0.07863173
0000a0 aa dc 55 bc 71 38 04 bd a2 2f c1 bd e5 7c e3 bd
       -0.013053099 -0.03228039 -0.09432913 -0.11107806
0000b0 ef 1a e0 3d 86 bd 2c bd 49 ad a4 3b 29 95 ca bd
       0.10942637 -0.04217293 0.00502554 -0.09891731
0000c0 8e f1 9b ba ea f5 8f 3c bd 23 ca 3d b9 e1 a5 3d
       -0.001189755 0.017573316 0.09870098 0.08099694
0000d0 ed c9 89 3d 10 39 ee bd 1e 1f a9 3d 9a 99 ad 3d
       0.067279674 -0.116319776 0.08257888 0.08476563
0000e0 18 68 03 3e 06 6b bf 3d 30 c6 f5 3d a9 8d cd bd
       0.12832677 0.09346585 0.12000692 -0.10036785
0000f0 74 da e2 bd 35 ae a9 bc 84 34 0b be da 73 00 3e
       -0.11076823 -0.020712951 -0.13594252 0.12544194
000100 72 61 fe 3d 60 c5 95 bd 7c 4b 83 3d 92 f2 32 3d
       0.1242093 -0.07313037 0.06410882 0.043688364
000110 55 df 3f 3d a5 12 27 bd 38 85 ee 3c 65 01 a5 bd
       0.046843845 -0.040789265 0.029116258 -0.080569066
000120 ae 16 4f 3d 80 70 6e bd 90 75 a8 bc 79 98 07 3d
       0.05055874 -0.058212757 -0.02056387 0.033104394
000130 b9 81 89 3c e9 36 8a 3d 03 83 d6 3d 83 f5 9b 3a
       0.01678549 0.067487545 0.10474207 0.001189873
000140 7c 35 80 3d 77 a0 bd 3d 15 62 b0 3d 2c 5e f7 3d
       0.06260201 0.09259122 0.08612458 0.12078509
000150 82 da 5e 3d 13 09 90 ba 12 1e 4d bd d2 53 b6 bd
       0.054407604 -0.0010989032 -0.050077505 -0.08902706
000160 4e 40 c9 3d df f1 0b 3e 1f df 09 3e 89 bb 1e bd
       0.09826718 0.13666485 0.1346402 -0.038753066
000170 c7 d9 bb 3d cf c5 ca 3d 58 e5 88 b9 3e 52 09 3e
       0.09172397 0.0990101 -0.00026110816 0.13410279
000180 ea 7a 63 3d 22 b7 80 3d ae ea 96 3d da a3 a4 bd
       0.05553714 0.0628493 0.0736898 -0.08039065
000190 5e 8f 97 bd 1c dc 6a 3d 9b 51 10 be 24 32 00 3e
       -0.07400392 0.05733882 -0.1409363 0.12519127
0001a0 54 16 e4 3d 35 20 9a bc 19 a3 6a 3d 0c 1d b7 3d
       0.11137071 -0.018814186 0.05728445 0.08941087
0001b0 8f 9d 87 bd c1 c4 02 3d 34 ce 0f be c7 e7 a7 bd
       -0.06621849 0.03192592 -0.14043504 -0.08198505
0001c0 f3 b1 05 bd ff bf 02 3d 71 e8 0b be 4c 3f 09 be
       -0.03264041 0.031921383 -0.13662888 -0.13403052
0001d0 41 73 85 3d 25 25 de bd bf c0 0c be 9d 66 34 3d
       0.065161236 -0.108469285 -0.13745402 0.044043172
0001e0 39 7e 3c bd cf 59 9c 3d 2e cf e6 bd b3 88 01 be
       -0.046018813 0.07634317 -0.11269985 -0.12649803
0001f0 f1 6d b2 3d 7c b0 b8 bd 0b 63 74 3d 43 f8 dc bc
       0.08712376 -0.09018037 0.059664767 -0.02697385
000200 1b 6e 43 3d 3e 64 98 3d ca 67 bd 3d b6 b8 e9 bd
       0.047712427 0.07440995 0.09248312 -0.11412184
000210 c5 fc f1 bd 98 88 8d 3d 5b fe 78 bc d9 6c bb 3d
       -0.1181579 0.06910819 -0.015197362 0.091516204
000220 5a 3c 0f be be 36 20 3d 25 16 e1 3d 08 58 02 3e
       -0.13987866 0.039114706 0.10990552 0.12728894
000230 33 4e 8a bd e0 39 65 bc 05 cc 63 bd 29 a6 90 bc
       -0.067531966 -0.013990849 -0.05561449 -0.017657356
000240 49 5f 95 bd 5d c4 c2 3d b4 6c 49 3d b0 c7 ae bd
       -0.07293565 0.095101096 0.049175933 -0.08534181
000250 62 6d ed 3d 87 da b4 bc 06 b0 90 3d b5 ea ed 3d
       0.11593129 -0.022076858 0.07064824 0.116170324
000260 ca e7 8f bd 3c 6a a0 3d 36 32 01 3e 11 1b 06 3e
       -0.07026632 0.078327626 0.1261681 0.13096263
000270 96 c9 a2 bd 70 a6 8c bd 6d 9f 78 3d 9c 29 1a 3c
       -0.07948606 -0.06867683 0.060698915 0.0094093345
000280 a8 5d ac bd 25 30 38 bc 72 7c 3d bd 65 f2 82 bd
       -0.08416301 -0.011241947 -0.04626126 -0.06393889
000290 90 d6 c4 bd db 8c a3 bc df 28 c2 bd 80 cf d7 3d
       -0.09611237 -0.019964626 -0.09480452 0.10537624
0002a0 89 2a 75 3d a3 f4 de 3d d1 17 07 bd c3 dc 92 3c
       0.059855018 0.108865045 -0.032981697 0.017927533
0002b0 82 98 94 3c 32 a7 0f 3e 6a f8 0c bd 6f ad 98 bc
       0.018139128 0.14028624 -0.034416594 -0.018637387
0002c0 03 31 99 bd 5d 5f c1 bd c5 2c 0a 3d 67 b2 06 be
       -0.07480051 -0.09442017 0.0337341 -0.13153993
0002d0 92 20 81 bc df b6 04 3e 67 fe 1d bd 62 0c ae bd
       -0.015762601 0.12960385 -0.038572695 -0.084984556
0002e0 48 6b 06 bd 79 a7 93 bd c6 3a 76 bd c6 10 04 3d
       -0.032817155 -0.07209677 -0.060114644 0.03224256
0002f0 14 d4 c4 3c ea 51 7d 3d 07 41 22 3d c9 7b 71 3d
       0.024026908 0.061845697 0.039612796 0.05895594
000300 13 bf e9 3d 3b d3 af 3d c1 11 00 3e 09 a3 de bc
       0.11413398 0.08585211 0.12506773 -0.02717735
000310 8d c7 a6 bd 23 69 a6 bd 85 d9 a7 bd e2 cd 8d 3d
       -0.0814353 -0.08125522 -0.081957854 0.06924035
