app/models/pytorch_model.pth (torch, 678945 bytes, 16 tensors)

encoder.weight_ih_l0 f4 [400, 38]
0	0xbd7aa70d	-0.06119447
1	0x3d831a9a	0.06401558
2	0x3d358ee7	0.044325735
3	0xb7f88000	-2.9623508e-05
4	0xbd2ad2f0	-0.041705072
5	0xbd9c6492	-0.0763637
6	0x3d69915d	0.057023395
7	0xbd6c322a	-0.057665028
8	0xbc8c6253	-0.017136728
9	0xbdcc48c3	-0.09974816
10	0xbae510cd	-0.001747632
11	0xbdcadf2a	-0.099058464
12	0xbccac433	-0.024751758
13	0xbd295d6d	-0.041348863
14	0xbd0d738d	-0.034534026
15	0x3d1a2f9a	0.037643053
16	0xbd48b5da	-0.049001552
17	0x3cbe6b67	0.023244573
18	0xbb9c4267	-0.004768658
19	0xbd7f728a	-0.062365092
20	0xbdc5760a	-0.09641655
21	0x3da14ccf	0.07875978
22	0x3d88c5c2	0.06678344
23	0x3db1b0ad	0.08676276
24	0x3d1b10da	0.037857868
25	0xbbd0d067	-0.0063724997
26	0x3ca3f880	0.020015955
27	0x3dad47eb	0.08460983
28	0xbcc9e69a	-0.024646092
29	0xbd574523	-0.05255617
30	0xbbd9841a	-0.006638062
31	0xbd7abeb0	-0.06121701
32	0x3dae0f00	0.08498955
33	0xbcda0aa0	-0.026616395
34	0xbc993c3a	-0.018705476
35	0x3c1f49c0	0.009722173
36	0x3d527b30	0.051387012
37	0x3d8969f8	0.06709665
38	0x3d5a07b0	0.053229988
39	0xbd94f2d2	-0.07272877
40	0x3db8076d	0.08985791
41	0x3d76ebc0	0.060283422
42	0x3d9b04d5	0.07569281
43	0xbcdf03da	-0.027223516
44	0xbca79f2d	-0.020461643
45	0x3dc45ad7	0.09587639
46	0xbd2bd997	-0.041955557
47	0x3d52d8a7	0.051476147
48	0xbcd276ed	-0.025691474
49	0xbd663fc7	-0.056213167
50	0x3d90108f	0.07034408
51	0x3da5ed98	0.08101958
52	0xbd979ef3	-0.07403364
53	0x3d91d32b	0.07120355
54	0xbd589280	-0.05287409
55	0x3ce8769a	0.028376866
56	0x3c3235cd	0.010877085
57	0xbc8a865a	-0.016909767
58	0x3d3cb7f3	0.046073865
59	0xbda28b4a	-0.079367235
60	0x3d9577aa	0.07298215
61	0xbc8a040d	-0.016847635
62	0x3b982867	0.004643488
63	0x3d1d2dad	0.038373638
64	0x3d754f23	0.059889924
65	0x3bfb4767	0.007668424
66	0xbd86f6e0	-0.065900564
67	0xbd293a17	-0.041315164
68	0xbd0bcaba	-0.034128882
69	0x3b83959a	0.0040156366
70	0x3d2aee37	0.041731086
71	0xbda73892	-0.08165087
72	0xbd79ac17	-0.060955133
73	0x3db01ad0	0.08598864
74	0x3c8d1cc7	0.017225636
75	0xbd5fffb0	-0.054687202
76	0xbc68d80d	-0.014211667
77	0x3d801c35	0.0625538
78	0xbdab558a	-0.08365925
79	0x3d7f36e7	0.06230822
80	0xbd207d2a	-0.039181866
81	0x3d2363f7	0.039890256
82	0x3d90b97f	0.070666306
83	0xbdcc21e7	-0.09967404
84	0x3c72d9cd	0.014822436
85	0xbdb037a2	-0.08604361
86	0x3dc98193	0.098391674
87	0xbd59441a	-0.053043462
88	0x3d870c43	0.065941356
89	0x3d92a960	0.07161212
90	0x3d773087	0.060349014
91	0xbd005a0a	-0.031335868
92	0x3dab1f75	0.08355609
93	0xbca3ead3	-0.020009434
94	0xbd6a929d	-0.057268728
95	0x3d10a513	0.035313677
96	0xbd19468a	-0.037420787
97	0xbdc2a9d8	-0.095050514
98	0xbd931713	-0.071821354
99	0xbdaa9942	-0.08330013
100	0x3da691a7	0.0813325
101	0xbd8f945b	-0.070107184
102	0xbda7b83f	-0.08189439
103	0xbd0f43cd	-0.03497677
104	0x3d497493	0.04918344
105	0x3d26ea2d	0.04075067
106	0xbd3859da	-0.045007564
107	0xbcd1ca5a	-0.025609184
108	0x3dc37620	0.09544015
109	0x3d9ce8d3	0.07661595
110	0x3d47a1e0	0.04873836
111	0x3ce4d9c0	0.027935863
112	0x3c8d2147	0.017227782
113	0xbdb4e5cd	-0.088328935
114	0xbd1f4797	-0.038886633
115	0xb9ba799a	-0.00035567285
116	0xbd6a5bcd	-0.057216454
117	0xbca9cbb3	-0.020727014
118	0x3dc7318d	0.09726248
119	0x3db6cd30	0.08925855
120	0x3c572ae7	0.013132787
121	0xbd74ac47	-0.05973461
122	0x3cea8c60	0.02863139
123	0x3db37e6d	0.08764348
124	0xbdaeb8fd	-0.085313775
125	0x3c23bfcd	0.009994459
126	0x3dbc2c03	0.09188082
127	0x3c7dba67	0.015486336
128	0x3ca3104d	0.019905234
129	0x3d300897	0.042976942
130	0x3ce8cc7a	0.028417815
131	0xbcad77ba	-0.021175254
132	0x3b308900	0.0026937127
133	0x3d889b72	0.06670274
134	0xbd85f0bf	-0.06540059
135	0xbc5ec11a	-0.013595844
136	0xbd3e7bd3	-0.046504807
137	0xbcdc407a	-0.026886214
138	0xbd8e6deb	-0.06954559
139	0x3d9d383d	0.07676742
140	0xb9e2eccd	-0.0004328251
141	0x3d123bc3	0.035701524
142	0xbd4627b3	-0.048377704
143	0xbd1c2e7a	-0.03813026
144	0xbdb7af5a	-0.089689925
145	0xbcdbe30d	-0.026841665
146	0x3dc2ad6b	0.09505733
147	0x3b21d4cd	0.002469349
148	0x3da84468	0.082161725
149	0x3d7a47ba	0.06110356
150	0xbc8a6007	-0.016891493
151	0x3c8e9c5a	0.017408539
152	0xbd82a8fd	-0.06379888
153	0x3d239b2a	0.039942898
154	0xbda72363	-0.08161046
155	0xbd2b5fd3	-0.041839432
156	0x3d8725dd	0.06599019
157	0x3dab8b00	0.083761215
158	0xbc52008d	-0.012817514
159	0xbda04070	-0.078247905
160	0xbdbcc40f	-0.09217083
161	0x3d8b5473	0.06803217
162	0x3dcb62c7	0.0993095
163	0x3c867667	0.01641388
164	0xbd8cdbeb	-0.068778835
165	0xbd806e42	-0.0627103
166	0x3c8a39c0	0.01687324
167	0xbd10bdda	-0.035337307
168	0xbd15cbed	-0.036571432
169	0x3da5ec1a	0.081016734
170	0xbc1e2127	-0.009651459
171	0x3d4f556a	0.050618567
172	0x3d2adfd0	0.04171735
173	0xbdaf45a0	-0.08558202
174	0x3bb05a1a	0.0053818347
175	0x3b767ecd	0.00376122
176	0xbc45ed0d	-0.012080443
177	0x3d46ad5d	0.048505176
178	0x3c3b5b8d	0.011435402
179	0xbd7afbad	-0.061275173
180	0xbd96baf3	-0.073598765
181	0xbd9fbdc8	-0.0779987
182	0x3d8b2235	0.06793634
183	0x3d86407f	0.065552704
184	0xbd0fcaa0	-0.035105348
185	0xbd9a9910	-0.075487256
186	0xbd4a2913	-0.049355578
187	0xbd7678ca	-0.060173787
188	0xbd29ae9d	-0.04142629
189	0x3cb2b253	0.021813547
190	0x3d6ad157	0.05732855
191	0x3c9496c7	0.018138302
192	0xbd8e0d08	-0.06936079
193	0x3c95202d	0.01820382
194	0x3d097ddd	0.0335673
195	0xbd84da08	-0.06486899
196	0xbd453720	-0.048148274
197	0x3cf6a5cd	0.030108357
198	0x3d9844af	0.07434975
199	0xbdcc3e62	-0.09972836
200	0xbadd8733	-0.0016901254
201	0xbdb65053	-0.089020394
202	0xbda12808	-0.078689635
203	0xbdc29ceb	-0.09502586
204	0xbd08bf6d	-0.033385683
205	0xbc0a184d	-0.008428645
206	0x3d5b4aa0	0.053537965
207	0xbd8bf3c0	-0.06833601
208	0xbd82bb02	-0.06383325
209	0x3c68a227	0.014198816
210	0x3da7ce18	0.08193606
211	0xbd110b83	-0.03541137
212	0x3d35115a	0.044206
213	0x3d242767	0.04007664
214	0x3d8c4ee8	0.06850988
215	0xbd24c6f7	-0.04022881
216	0x3db979cb	0.09056433
217	0xbbd45233	-0.0064795255
218	0xbc84b453	-0.016199267
219	0x3d7759b3	0.06038828
220	0xbcf1ee7a	-0.02953266
221	0x3dc05ec7	0.09393077
222	0x3dab3458	0.08359593
223	0x3dbb45c5	0.09144167
224	0x3cbaca73	0.022801613
225	0x3d686e27	0.056745674
226	0x3ca465ad	0.020068014
227	0x3d0cd717	0.034384813
228	0xbd31346d	-0.043262888
229	0xbdaf7f67	-0.08569222
230	0xbc29aee7	-0.010356641
231	0x3ca7b2ba	0.020470966
232	0xbd2272fa	-0.03966043
233	0xbdcbb03d	-0.09945724
234	0x3d01383a	0.031547762
235	0x38174000	3.606081e-05
236	0xbd85bcb3	-0.06530132
237	0x3d3cdb4a	0.046107568
238	0xbd9328fb	-0.07185551
239	0x3dc90513	0.09815421
240	0xbd9f69da	-0.077838615
241	0xbda99948	-0.08281189
242	0xbd98b923	-0.07457187
243	0x3d3c1b3d	0.045924414
244	0xbc48acf3	-0.012248266
245	0xbd5e848d	-0.05432563
246	0xbd34ecea	-0.04417125
247	0x3db77f3b	0.08959814
248	0x3dac087a	0.08400054
249	0x3cf28240	0.029603124
250	0xbdc9679f	-0.09834217
251	0xbd14ac5a	-0.03629718
252	0xbc416c27	-0.011805571
253	0x3d0aeead	0.033919025
254	0xbd9cdca8	-0.07659274
255	0xbd5cae0d	-0.053876925

encoder.weight_hh_l0 f4 [400, 100]
0	0x3d913773	0.07090654
1	0xbd14984a	-0.036278047
2	0x3db67f03	0.08910944
3	0xbbc2c700	-0.005944133
4	0x3dbe1918	0.0928213
5	0x3a3fb400	0.0007312894
6	0x3d744baa	0.05964247
7	0x3be39d33	0.00694623
8	0xbb487267	-0.0030585767
9	0xb9b0c333	-0.0003371477
10	0x3d979f03	0.07403376
11	0x3da28980	0.07936382
12	0x3d3727aa	0.04471556
13	0xbc6774f3	-0.014127004
14	0x3d355707	0.04427245
15	0x3d9751f0	0.07388675
16	0xbdc62ddd	-0.096767165
17	0xbd55809d	-0.05212461
18	0xbda16555	-0.07880656
19	0xbd1fc0e7	-0.039002325
20	0x3da9235d	0.08258698
21	0xbd977343	-0.07395031
22	0xbbffdf80	-0.0078086257
23	0x3c0fa19a	0.008766556
24	0xbdadcb88	-0.08486086
25	0xbda95f27	-0.08270102
26	0xbada7e00	-0.0016669631
27	0xbb2d3a33	-0.0026432395
28	0xbd3d34bd	-0.046192873
29	0x3bc282cd	0.005936003
30	0xbcc7bd3a	-0.024382222
31	0x3d196f13	0.037459444
32	0xbcd71ded	-0.026259387
33	0xbd050c3a	-0.032482363
34	0xbd43aae7	-0.047770407
35	0x3d43bd0d	0.047787715
36	0x3d81cb1a	0.06337567
37	0x3d22f1ed	0.0397815
38	0xbd2cd040	-0.04219079
39	0xbd36f5c7	-0.044667985
40	0x3d99a95a	0.07503004
41	0x3d54276d	0.05179541
42	0x3b6aae33	0.0035809397
43	0x3d8450ab	0.06460699
44	0xbdb92310	-0.09039891
45	0x3d1750ed	0.03694241
46	0xbd55e750	-0.05222255
47	0x3bdc291a	0.006718767
48	0x3c98ecc7	0.018667592
49	0x3c9cb72d	0.019130314
50	0xbdb95343	-0.09049084
51	0x3c97df80	0.01853919
52	0x3da3c8da	0.07997294
53	0x3d301ef7	0.04299828
54	0x3d9ded93	0.07711329
55	0x3d5b5edd	0.053557266
56	0xbd908a58	-0.07057637
57	0xbd15a787	-0.03653672
58	0x3d718570	0.058965147
59	0x3c182a8d	0.009287489
60	0xbcc8c567	-0.024508191
61	0x3c2ae7a7	0.010431207
62	0xbdc62582	-0.09675123
63	0x3da6e113	0.08148398
64	0xbdae9dc0	-0.08526182
65	0x3d8e4d25	0.06948308
66	0x3bcff29a	0.006346059
67	0x3b637f9a	0.0034713508
68	0x3d932f97	0.071868114
69	0xbd4cccad	-0.04999988
70	0x3d071663	0.032980334
71	0x3da78f9b	0.081816874
72	0x3c1906c0	0.009339988
73	0x3d9382a7	0.07202654
74	0x3c4e87a7	0.012605584
75	0xbd00ac37	-0.031414237
76	0xbbaf0780	-0.0053414702
77	0x3d811d0f	0.063043706
78	0x3cd8e5c0	0.02647674
79	0x3bd03300	0.006353736
80	0x3da1534a	0.07877214
81	0x3dbad128	0.09121925
82	0xbbfce7b3	-0.0077180504
83	0xbd3ba8b7	-0.045815196
84	0x3d3805a7	0.044927265
85	0xbb8a704d	-0.004224813
86	0x3d250f8a	0.040298022
87	0x3da03d97	0.07824247
88	0xbda06405	-0.07831577
89	0x3c8b81c0	0.017029643
90	0xbd3a4650	-0.04547721
91	0x3d832893	0.06404223
92	0x3d8b1b0b	0.067922674
93	0x3c8bf307	0.017083658
94	0xbd980337	-0.07422488
95	0x3dcc85a7	0.0998643
96	0x3d45601d	0.048187364
97	0xbd920665	-0.07130126
98	0x3cdfb233	0.027306652
99	0xbd677d3d	-0.05651592
100	0xbd969c0a	-0.07353981
101	0x3d9e7cd5	0.077386536
102	0xbd9e65db	-0.07734271
103	0xbcd23360	-0.025659263
104	0xbcdc35e7	-0.026881171
105	0x3d70487d	0.05866288
106	0x3d914c12	0.070945874
107	0x3c8a45ba	0.016878951
108	0xbd20d9f7	-0.039270367
109	0x3d0c4fa0	0.034255624
110	0xbdb84f9f	-0.089995615
111	0x3d4fc98d	0.050729323
112	0x3d9a0343	0.075201534
113	0x3d8c677b	0.06855675
114	0xbd741977	-0.059594598
115	0xbd3995ba	-0.045308806
116	0x3c875967	0.016522123
117	0x3d463e7a	0.048399426
118	0x3d8ec37a	0.06970878
119	0x3dbabeab	0.09118398
120	0x3d474007	0.048645046
121	0x3c96a527	0.018389298
122	0x3dad6b95	0.08467785
123	0x3ccd6573	0.025072789
124	0xbd7f0b1a	-0.062266447
125	0x3db287c0	0.087172985
126	0x3d85149d	0.06498072
127	0x3cd37e27	0.02581699
128	0xbd06da1d	-0.032922853
129	0xbdb4841f	-0.088142626
130	0x3da48d08	0.08034712
131	0xbd8702af	-0.06592309
132	0x3dace097	0.084412746
133	0x3d8222f3	0.06354322
134	0x3d5b596d	0.05355208
135	0xbd502bf3	-0.050823163
136	0xbdbeec15	-0.09322373
137	0xbdaff382	-0.08591367
138	0x3cf5aeed	0.029990638
139	0x3c225e9a	0.00991025
140	0x3d8363af	0.064154975
141	0xbc9e3107	-0.019310487
142	0xbd0019c0	-0.031274557
143	0xbc5599cd	-0.013037157
144	0x3d1b8c5d	0.037975658
145	0x3d9ffe48	0.07812172
146	0x3c2bc98d	0.010485065
147	0xbd696680	-0.056982517
148	0xbcd68567	-0.026186658
149	0x3cced487	0.025247825
150	0x3d3a64a0	0.04550612
151	0xbc7bdc5a	-0.01537236
152	0xbc958ba7	-0.018255068
153	0xbd7b1d33	-0.061307143
154	0x3dcadb0b	0.099050604
155	0x3cb7434d	0.022370959
156	0x3cdead6d	0.027182305
157	0x3d98c62f	0.074596755
158	0x3cac9700	0.021068096
159	0x3dbc42a7	0.091924004
160	0xbcc64d0d	-0.024206663
161	0xbdb4f9d5	-0.08836714
162	0xbda95d43	-0.082697414
163	0xbd9c12f3	-0.07620802
164	0x3db22170	0.08697784
165	0x3da042aa	0.07825215
166	0xbd3a64c0	-0.04550624
167	0x3cfbb49a	0.030725766
168	0xbd9b695b	-0.07588454
169	0x3d104850	0.035225213
170	0xbc3b68e7	-0.011438585
171	0x3b9f391a	0.004859102
172	0x3d880f20	0.0664351
173	0xbd58cd93	-0.052930426
174	0xbdae903f	-0.085236065
175	0x3dbc907a	0.09207244
176	0xbd94ff2f	-0.07275235
177	0x3d822c62	0.063561216
178	0xbcf510e0	-0.029915273
179	0xbcf080da	-0.029358316
180	0xbd8e3f13	-0.06945624
181	0xbd91b190	-0.071139455
182	0x3d92ea4a	0.07173593
183	0xbca6b573	-0.020350194
184	0x3d381c67	0.04494896
185	0xbdb1474a	-0.086561754
186	0x3dc416da	0.09574671
187	0x3d41c2c7	0.047304895
188	0xbd3a8000	-0.045532227
189	0x3d70281a	0.058631994
190	0xbdb46c17	-0.08809679
191	0x3dc14032	0.094360724
192	0xbd9c345a	-0.07627173
193	0x3db095fd	0.08622358
194	0xb9b9a667	-0.0003540993
195	0xbdb69bf3	-0.08916464
196	0xbd1cf17d	-0.03831624
197	0x3d6ccdf7	0.05781361
198	0xbd846468	-0.064644635
199	0x3c35825a	0.0110784415
200	0x3c8b9f7a	0.017043818
201	0x3d232e07	0.039838817
202	0xbd392d7d	-0.045209397
203	0xbc7cd5c0	-0.015431821
204	0xbd7247ca	-0.059150495
205	0xbbd50b67	-0.0065016034
206	0x3d45e723	0.048316132
207	0x3dc6490d	0.09681902
208	0xbda9adad	-0.08285079
209	0x3da2fad8	0.07958001
210	0x3d786550	0.060643494
211	0x3d44df30	0.04806441
212	0xbbbef980	-0.0058280826
213	0xbb2a6133	-0.0025997877
214	0x3b6c439a	0.0036051036
215	0x3d168283	0.03674556
216	0x3d65b6e0	0.056082606
217	0x3d019baa	0.031642593
218	0xbc95f60d	-0.018305803
219	0x3d3e548d	0.046467353
220	0xbda5b797	-0.080916576
221	0x3d40ae40	0.047041178
222	0xbdb3da17	-0.08781832
223	0xbdc4a7b2	-0.09602298
224	0xbd9ffcdb	-0.078119
225	0x3db4dd07	0.0883122
226	0x3cef1e60	0.029189289
227	0x3d2d24ed	0.042271543
228	0xbd3ace2d	-0.04560678
229	0xbd6b5ddd	-0.057462562
230	0xbcbb5600	-0.022868156
231	0xbca75e9a	-0.020430852
232	0xbd61ae27	-0.055097725
233	0x3d711cbd	0.058865298
234	0xbc960940	-0.018314958
235	0x3da728cb	0.081620775
236	0xbd5edecd	-0.054411698
237	0xbcbc4c8d	-0.022985721
238	0x3c97393a	0.018459905
239	0xbd049260	-0.032366157
240	0x3dbcacca	0.092126444
241	0xbdca615a	-0.098818496
242	0x3cab63ed	0.020921672
243	0x3d437f1d	0.047728647
244	0xbcd9c6c0	-0.02658403
245	0x3c47dce7	0.012198663
246	0xbc40c073	-0.0117646335
247	0xbd56fdb0	-0.05248803
248	0xbb37cb67	-0.0028044821
249	0x3d483427	0.04887786
250	0x3bbac600	0.005699873
251	0xbbba8a4d	-0.0056927563
252	0x3dcb2f70	0.09921157
253	0xbda56a30	-0.08076894
254	0x3d187c8a	0.037228145
255	0xbdccc84f	-0.09999143

encoder.bias_ih_l0 f4 [400]
0	0xbdba4d65	-0.09096793
1	0xbcaf3627	-0.021388127
2	0xbc7111b3	-0.0147136925
3	0x3d880400	0.06641388
4	0xbcb9a947	-0.022663726
5	0x3d588270	0.05285877
6	0xbdc687a5	-0.09693841
7	0xbd8ee3d5	-0.06977049
8	0xbd19de9a	-0.037565805
9	0x3d995d70	0.07488525
10	0xbd762f7d	-0.060103882
11	0x3c801e4d	0.015639449
12	0xbd5426ea	-0.051794924
13	0x3d821665	0.06351928
14	0x3dbdd213	0.09268584
15	0xbda5740f	-0.08078777
16	0xbc29774d	-0.010343385
17	0x3db0d48f	0.08634292
18	0xbce85a4d	-0.028363371
19	0x3d510b57	0.051036205
20	0x3d5616c0	0.05226779
21	0x3b486333	0.0030576705
22	0x3db5e8ba	0.0888228
23	0xbd80a2db	-0.06281062
24	0x3d86b8ed	0.065782405
25	0xbdb84ff8	-0.08999628
26	0x3cc62087	0.024185432
27	0x3d8d8235	0.06909601
28	0xbcf54853	-0.029941713
29	0x3dc6494b	0.09681948
30	0xbc5641f3	-0.013077247
31	0x3da548c5	0.0807052
32	0xbc7e40b3	-0.015518355
33	0x3c6fb967	0.014631606
34	0xbd55ed67	-0.052228358
35	0x3da07060	0.07833934
36	0xbc85748d	-0.016290927
37	0xbd8f1b78	-0.06987661
38	0xbaa7ee67	-0.0012812138
39	0x3c56400d	0.013076794
40	0xbd8141d7	-0.06311386
41	0xbc25bab3	-0.010115313
42	0x3cadb713	0.02120546
43	0x3bfe32e7	0.007757533
44	0x3d29a8d0	0.041420758
45	0x3cca9c40	0.024732709
46	0x3d6b615d	0.0574659
47	0x3d23b4ed	0.039967466
48	0xbab1819a	-0.0013542653
49	0xbd475b1d	-0.048670877
50	0x3d61561a	0.055013753
51	0xbda6aadf	-0.0813806
52	0x3d9b9d4b	0.07598361
53	0xbd0534cd	-0.032521058
54	0xbd2594c7	-0.04042509
55	0xbcde5c7a	-0.027143706
56	0x3c3910c0	0.011295497
57	0xbb260667	-0.0025333406
58	0x3caba747	0.020953787
59	0xbd88990b	-0.06669816
60	0xbc38efe7	-0.011287666
61	0xbba23ab3	-0.004950845
62	0x3d0c422a	0.034242786
63	0x3d18fff7	0.037353482
64	0x3c9cea67	0.01915474
65	0x3d63783d	0.05553459
66	0xbcbfda2d	-0.023419464
67	0xbc1053cd	-0.008809042
68	0x3d8c1fd2	0.06842007
69	0xbd8f849f	-0.07007717
70	0xbd852f3d	-0.065031506
71	0xbdcb2db0	-0.099208236
72	0xbd960bad	-0.07326446
73	0x3d224e40	0.039625406
74	0xbcc8542d	-0.0244542
75	0xbda87ccf	-0.0822693
76	0x3d2f4d3d	0.04279827
77	0xbd4f0d2a	-0.050549664
78	0x3d558213	0.052126
79	0x3dad3bab	0.084586464
80	0xbc04f01a	-0.008113885
81	0x3d7f4093	0.062317442
82	0xbca8015a	-0.020508457
83	0x3d74fab0	0.059809387
84	0xbdb387d2	-0.0876614
85	0xbd7a18b7	-0.061058726
86	0x3ac6ea67	0.0015176059
87	0xbdc3088f	-0.09523117
88	0x3d15b433	0.036548804
89	0x3d901a7f	0.07036304
90	0xbd98002d	-0.074219085
91	0x3c0f5073	0.008747208
92	0xbd9643f0	-0.07337177
93	0x3d821553	0.063517235
94	0x3d8bc605	0.068248786
95	0x3d85d0dd	0.06533978
96	0x3da44f93	0.0802299
97	0xbdc35c60	-0.095391035
98	0x3db6bb05	0.0892239
99	0xbd50422a	-0.05084435
100	0x3d66c803	0.05634309
101	0x3db7824a	0.089603975
102	0xbd042447	-0.03226116
103	0xbd9fcc03	-0.07802584
104	0xbda88020	-0.08227563
105	0xbd7b2817	-0.06131753
106	0x3cbd1067	0.02307911
107	0x3d84f337	0.06491702
108	0xbd6a780d	-0.057243396
109	0xbca2cd73	-0.019873356
110	0x3d8cb457	0.068703346
111	0x3da7bec7	0.08190685
112	0xbcb15ba0	-0.021650136
113	0x3b265d00	0.0025385022
114	0xbdc1b533	-0.09458389
115	0xbcbe869a	-0.023257542
116	0x3d0313f7	0.03200146
117	0x3d477e3a	0.048704363
118	0xbd8b411d	-0.06799529
119	0x3ccdad3a	0.025107015
120	0xbd1cffa7	-0.038329747
121	0xbcd1fa4d	-0.025632048
122	0x3d9e6fa5	0.07736138
123	0xbd42e720	-0.0475837
124	0xbd77372d	-0.060355354
125	0x3d95fb4b	0.07323321
126	0xbcbbf45a	-0.022943664
127	0xbdbb894d	-0.091570474
128	0xbcb4a560	-0.022051513
129	0x3cd74e47	0.026282443
130	0x3bf63a33	0.007514262
131	0x3dbe3d23	0.09289005
132	0xbdc3b12f	-0.095552795
133	0x3d535053	0.051590275
134	0x3cc2ffa7	0.023803545
135	0xbb600ccd	-0.0034187317
136	0xbdc19782	-0.09452726
137	0xbdb21e92	-0.08697237
138	0x3d067967	0.032830622
139	0x3d812a20	0.06306863
140	0x3c4da0c0	0.012550533
141	0x3da47b33	0.08031311
142	0x3dc93837	0.09825175
143	0x3d84b1a2	0.06479193
144	0xbdc9cff5	-0.09854118
145	0xbcf8ce33	-0.030371761
146	0x3c6bcf80	0.014392734
147	0xbd37b26d	-0.044847894
148	0xbcdc490d	-0.026890302
149	0x3dc7a05d	0.09747384
150	0xbd60769d	-0.05480062
151	0x3dc53fff	0.09631347
152	0x3cfb9acd	0.030713463
153	0xbd51949d	-0.05116712
154	0x3c04244d	0.008065295
155	0x3d9afbeb	0.07567581
156	0xbd8e896a	-0.069598034
157	0xbd24e2e7	-0.040255453
158	0x3cb3d240	0.021950841
159	0xbd883ead	-0.066525795
160	0xbda6809f	-0.08130001
161	0x3d1190ba	0.035538413
162	0x3da992d5	0.08279959
163	0x3dc3249a	0.095284656
164	0x3d31bd77	0.04339358
165	0x3dbc90c5	0.092073
166	0x3d80c44d	0.062874414
167	0x3d38c5bd	0.045110453
168	0x3dc6f278	0.09714216
169	0xbd29dafa	-0.041468598
170	0xbd1ecc70	-0.038769186
171	0x3cada733	0.02119789
172	0xbd27afcd	-0.04093914
173	0xbd822485	-0.06354622
174	0xbd23c127	-0.039979126
175	0x3d8ef672	0.069805995
176	0xbdbce75a	-0.09223814
177	0xbd9f4acf	-0.077779405
178	0x3d77a39a	0.060458757
179	0x3cc54760	0.024081886
180	0x3d004277	0.031313386
181	0x3d6bac40	0.057537317
182	0x3d57c583	0.052678596
183	0xbbadd3cd	-0.0053047896
184	0xbb18af33	-0.0023297786
185	0xba218a67	-0.0006162286
186	0x3db8f7e7	0.090316586
187	0xbd1b7690	-0.037954867
188	0xbdacb765	-0.08433417
189	0x3c3ce84d	0.011529994
190	0x3d4d01a7	0.050050404
191	0xbdbdd08f	-0.09268295
192	0xbd5e078a	-0.05420641
193	0x3d89870d	0.06715212
194	0x3d94c5b8	0.07264274
195	0x3d0c219d	0.034211744
196	0xbb564100	-0.0032692552
197	0x3b6508cd	0.0034947873
198	0x3d233e27	0.039854195
199	0xbd7e6a3d	-0.062113035
200	0xbd9e01cd	-0.07715187
201	0xbd4eb0a3	-0.050461423
202	0x3d1b8987	0.037972953
203	0x3d822f3d	0.06356666
204	0xbd57d513	-0.052693438
205	0xbd69ae3d	-0.057050932
206	0xbdb9b178	-0.090670526
207	0x3d37da1a	0.044885732
208	0xbda526d8	-0.080640495
209	0xbdc82f90	-0.09774697
210	0x3d292960	0.041299224
211	0x3da8d210	0.08243191
212	0x3d7d4c0d	0.061840106
213	0xbccd85b3	-0.025088167
214	0x3d883513	0.06650748
215	0xbc42079a	-0.011842633
216	0xbd88efd0	-0.066863656
217	0x3dcbbf62	0.09948613
218	0xbd8d4ee7	-0.06899815
219	0x3da87d20	0.08226991
220	0xbcdb09f3	-0.026738143
221	0xbd97b6f3	-0.07407942
222	0x3c8ecc73	0.017431473
223	0x3dbc0b08	0.091817915
224	0xbd213bad	-0.039363552
225	0xbdc653b0	-0.09683931
226	0xbc244ef3	-0.010028589
227	0x3d6b2890	0.05741173
228	0xbd8afe53	-0.0678679
229	0x3ce73e73	0.02822802
230	0xbd8b27cd	-0.06794701
231	0xbdab3ed8	-0.08361596
232	0xbae818cd	-0.0017707587
233	0x3ca728fa	0.020405281
234	0x3cf1ad20	0.029501498
235	0x3c69e900	0.014276743
236	0x3db73120	0.08944917
237	0x3dafb415	0.0857927
238	0x3d27eb03	0.04099561
239	0x3d1f17f0	0.038841188
240	0x3dbde667	0.092724614
241	0xbd8e6853	-0.06953492
242	0xbcb4c12d	-0.02206477
243	0x3db8c53d	0.09021995
244	0x3c272c00	0.0102033615
245	0xbd670c30	-0.056408107
246	0x3d8af52b	0.06785043
247	0xbda03722	-0.07823016
248	0x3d759bf7	0.059963193
249	0x3d98ca97	0.07460516
250	0x3c4902c0	0.012268722
251	0xbdc0c9c8	-0.09413487
252	0xbd6c0047	-0.057617452
253	0x3d9d6687	0.07685571
254	0x3cf2e29a	0.029649068
255	0x3c43750d	0.011929763

encoder.bias_hh_l0 f4 [400]
0	0x3ce76d93	0.028250491
1	0x3d7ecb0a	0.062205352
2	0xbdab6378	-0.083685815
3	0x3d3c383a	0.04595206
4	0x3db4497a	0.08803077
5	0x3d6a9f6d	0.057280947
6	0x3dbd2d3f	0.09237146
7	0x3d02ae5d	0.031904567
8	0x3c640540	0.013917267
9	0x3d532ee7	0.0515584
10	0x3d376587	0.04477456
11	0xbdc48f02	-0.09597589
12	0x3ce93920	0.028469622
13	0x3dbb90fd	0.09158514
14	0x3db7afb0	0.089690566
15	0xbd841c9d	-0.0645077
16	0x3d8d3e48	0.06896645
17	0xbdc8b615	-0.098003544
18	0x3d9569cd	0.072955705
19	0x3d95ad60	0.07308459
20	0x3d6d41cd	0.05792408
21	0xbdaa6688	-0.083203375
22	0x3dbcf35f	0.09226107
23	0x3d19c173	0.037538003
24	0xbc3d4ac0	-0.011553466
25	0xbd34276a	-0.0439829
26	0x3b818933	0.003953123
27	0x3dbc456f	0.09192931
28	0x3d949615	0.072551884
29	0xbd621fa0	-0.05520594
30	0xbd74bb6a	-0.059749044
31	0x3d8415c2	0.064494625
32	0x3d8db058	0.069184005
33	0x3d73d2bd	0.059527148
34	0x3ca2001a	0.019775439
35	0xbd5283d3	-0.05139525
36	0xbd8bbec2	-0.068234935
37	0xbda72de5	-0.081630506
38	0x3d821730	0.06352079
39	0x3d092d30	0.03349036
40	0x3db339e7	0.08751278
41	0xbd522d37	-0.05131265
42	0x3be8d933	0.0071059703
43	0xbb8bbd67	-0.004264522
44	0xbd99658d	-0.074900724
45	0x3cc18033	0.0236207
46	0x3a386ccd	0.00070352555
47	0x3d16ff6a	0.036864676
48	0x3d927e85	0.07153038
49	0xbd97b70b	-0.074079596
50	0xbbc49033	-0.005998635
51	0xbda3ac8d	-0.07991896
52	0xbcb40afa	-0.02197789
53	0xbd5fbd97	-0.054624166
54	0x3dbf1217	0.09329622
55	0x3d42dc8a	0.047573604
56	0xbd66f567	-0.056386378
57	0xbd2327e0	-0.03983295
58	0xbd6eb6c7	-0.05827978
59	0xbd441b9d	-0.047877897
60	0x3c3cc29a	0.011521006
61	0xbc68bc4d	-0.014205051
62	0xbdc0eaa3	-0.094197534
63	0xbcadbeba	-0.02120911
64	0xbce8f9c0	-0.028439403
65	0x3bfcb8e7	0.0077124718
66	0x3cfae840	0.030628324
67	0x3d39f8fd	0.04540347
68	0x3c1bb980	0.009504676
69	0x3d9f7c68	0.077874005
70	0xbd822c70	-0.06356132
71	0xbc103bcd	-0.00880332
72	0xbd859837	-0.06523173
73	0x3d35fdfa	0.044431664
74	0x3d92127f	0.07132434
75	0x3b481600	0.003053069
76	0xbdab6573	-0.08368959
77	0xbc27789a	-0.010221625
78	0xbce20320	-0.02758938
79	0xbc3e3840	-0.011610091
80	0x3d984d18	0.074365795
81	0x3da85da7	0.08220988
82	0xbd73ca9a	-0.059519388
83	0x3cf6fd00	0.030149937
84	0x3d119927	0.035546448
85	0x3cc94d07	0.024572862
86	0xbd95829d	-0.07300303
87	0xbd8c19f0	-0.06840885
88	0x3c31df8d	0.010856521
89	0xbd18e1b3	-0.03732462
90	0x3d599b40	0.053126574
91	0x3d0078e3	0.031365287
92	0x3d433120	0.04765427
93	0x3da69675	0.08134166
94	0xbd0d3ea0	-0.034483552
95	0xbdbb58a8	-0.09147769
96	0xbcc1717a	-0.02361368
97	0xbc894c53	-0.016760027
98	0x3da7fe65	0.08202819
99	0x3d22660d	0.039648104
100	0x3cc43b87	0.023954166
101	0xbd9b1840	-0.07572985
102	0xbd6f9657	-0.058492985
103	0xbca795da	-0.020457197
104	0xbd1282a7	-0.03576913
105	0x3cd3ae3a	0.025839914
106	0xbcbf9fed	-0.023391688
107	0x3c67131a	0.014103675
108	0x3c20bd1a	0.00981071
109	0xbdc8678b	-0.09785374
110	0x3d887c97	0.066643886
111	0x3dae17e0	0.085006475
112	0x3b8d5780	0.0043134093
113	0x3d96d25d	0.07364342
114	0xbd98b565	-0.07456473
115	0xbcc46987	-0.0239761
116	0x3d17aaca	0.03702811
117	0xbbd7bcb3	-0.006583774
118	0xbdbb960a	-0.09159477
119	0x3dc57510	0.096414685
120	0x3db93f5f	0.0904529
121	0x3d065723	0.032797944
122	0xbd141063	-0.03614844
123	0xbd8fdf92	-0.070250645
124	0xbd0cc823	-0.034370553
125	0x3d558037	0.05212423
126	0xbd5429f0	-0.051797807
127	0xbbdb819a	-0.0066987993
128	0x3d988c88	0.07448679
129	0x3cd356ed	0.025798285
130	0xbc281c0d	-0.010260594
131	0xbc6d7827	-0.014493979
132	0xbd31937d	-0.043353546
133	0x3daf342a	0.085548714
134	0x3dc57cfd	0.0964298
135	0xbd7355d3	-0.05940802
136	0xbdc69c1b	-0.096977435
137	0x3c1be6a7	0.009515441
138	0x3d0104b0	0.03149861
139	0x3da93d4f	0.08263647
140	0x3d8e6edb	0.06954738
141	0xbb038f67	-0.0020074488
142	0x3d8c6753	0.06855645
143	0x3d2b34dd	0.04179846
144	0x3dbf89fb	0.093524896
145	0x3d36cf7a	0.04463146
146	0xbcb42cfa	-0.021994103
147	0xbd801073	-0.062531374
148	0xbdc5d3c5	-0.096595325
149	0xbd65297a	-0.05594776
150	0xbd673ddd	-0.05645548
151	0x3ae7dd33	0.0017689824
152	0xbc7f02a7	-0.015564597
153	0xbdaece70	-0.085354686
154	0x3d9993a0	0.0749886
155	0x3ca5330d	0.020165944
156	0x3c203e73	0.009780514
157	0xbd256fad	-0.040389705
158	0xbdc6d490	-0.09708512
159	0x3da1e62b	0.07905229
160	0x3d20c667	0.03925171
161	0xbc95e9ed	-0.018300021
162	0x3d5ee687	0.054419067
163	0xbc5104f3	-0.012757528
164	0x3d810873	0.0630044
165	0x3daf9c2f	0.085747115
166	0x3d184c5d	0.0371822
167	0xbda5230b	-0.080633245
168	0xbcb9be60	-0.022673786
169	0x3d41b007	0.047287013
170	0x3d8f70b8	0.07003921
171	0x3d9fc942	0.07802059
172	0x3dbacce0	0.09121108
173	0x3da28d15	0.079370655
174	0x3d1304f0	0.03589338
175	0xbcbaa55a	-0.022783924
176	0x3da386c2	0.079846874
177	0xbdcae002	-0.09906007
178	0x3d8122f3	0.06305494
179	0x3daeb07f	0.08529758
180	0xbdb37708	-0.08762938
181	0x3ccdabed	0.025106395
182	0xbd81bfb7	-0.06335395
183	0x3ce240ba	0.027618755
184	0x3b8c369a	0.00427897
185	0x3d2beb3a	0.041972376
186	0x3c845960	0.016155899
187	0x3d6d795a	0.057977058
188	0xbdb69fed	-0.08917222
189	0xbd62e647	-0.05539539
190	0xbd2bf8d7	-0.04198536
191	0xbc917900	-0.017757893
192	0xbd9a0b3b	-0.07521673
193	0x3cc08320	0.023500025
194	0x3db1fb72	0.086905375
195	0x3daaa6e7	0.08332615
196	0xbdc36cfd	-0.09542272
197	0xbd4aba73	-0.049494218
198	0xbce30aa0	-0.027715027
199	0xbdab6703	-0.08369257
200	0xbd7207ad	-0.05908935
201	0xbd962755	-0.07331721
202	0x3dafe9c5	0.0858951
203	0x3daad842	0.08342029
204	0x3b74ab67	0.003733361
205	0xbda3c210	-0.07995999
206	0x3c6dbd80	0.014510512
207	0x3d2070c0	0.039170027
208	0x3a29f400	0.0006483197
209	0x3d67c0d7	0.05658039
210	0x3dcaa5d2	0.09894909
211	0xbd8ef4a2	-0.06980254
212	0xbda31fff	-0.07965087
213	0xbd9b6c38	-0.075890005
214	0x3d0ab3f7	0.033863034
215	0x3c876793	0.01652888
216	0x3d846e62	0.06466366
217	0x3dac2d02	0.08407022
218	0x3dbd2ffb	0.09237667
219	0x3daff2b3	0.08591213
220	0xbc958440	-0.018251538
221	0xbdb640a3	-0.08899047
222	0x3c935060	0.017982662
223	0x3d2e6547	0.042577054
224	0x3d8425ea	0.06452544
225	0xbd51970a	-0.051169433
226	0xbdca1ab3	-0.09868374
227	0x3cf2cd80	0.029639006
228	0x3dbc18e2	0.091844335
229	0xbdbe0a83	-0.09279349
230	0x3d5fdeda	0.054655887
231	0xbdb1a720	-0.08674455
232	0xbd7d5327	-0.06184688
233	0x3dbaf322	0.09128405
234	0xbd3721e0	-0.04471004
235	0xbdb87022	-0.09005763
236	0xbb1b0433	-0.0023653626
237	0x3d73a197	0.059480276
238	0x3b8630b3	0.004095161
239	0x3d9f0ba2	0.07765891
240	0xbccb148d	-0.024790073
241	0x3ceb2c47	0.028707637
242	0xbd826af0	-0.06368053
243	0xbdbc111b	-0.0918295
244	0xb9d8f99a	-0.00041384698
245	0x3d4585f3	0.048223447
246	0x3da50b13	0.08058753
247	0x3c02ad9a	0.00797596
248	0x3daa21f2	0.08307256
249	0x3daa88e0	0.08326888
250	0xbd94336f	-0.07236373
251	0x3d70378d	0.058646727
252	0x3c16da40	0.009207308
253	0xbcc69fe7	-0.02424617
254	0xbc6244b3	-0.0138103245
255	0x3da53563	0.08066823

encoder2.weight_ih_l0 f4 [200, 100]
0	0x3e108b6d	0.14115687
1	0x3c8bddfb	0.017073622
2	0xbdb586d7	-0.08863609
3	0x3dbc723f	0.09201478
4	0xbdaa0739	-0.08302159
5	0xbdbcc66b	-0.09217533
6	0xbb44f26a	-0.0030051717
7	0x3dee4b95	0.1163551
8	0xbdb856af	-0.090009086
9	0xbd087749	-0.033316884
10	0x3d815ca8	0.06316501
11	0x3c7e708f	0.015529766
12	0xbd2d863c	-0.042364344
13	0x3dd0ab01	0.101888664
14	0x3d9d96f6	0.07694809
15	0xbd324111	-0.043519083
16	0xbd30019b	-0.04297028
17	0xbda157dc	-0.07878086
18	0x3e00574d	0.12533303
19	0x3d814ec8	0.063138545
20	0x3df6b963	0.120470785
21	0xbe02514e	-0.12726328
22	0xbc89b822	-0.016811434
23	0x3ddead53	0.10872903
24	0xbde553f3	-0.11197653
25	0xbc58e57e	-0.013238309
26	0x3d8fdef7	0.07024949
27	0xbdfb214b	-0.122622095
28	0xbdc9d8cb	-0.09855803
29	0x3d71a01d	0.058990587
30	0x3e0200ff	0.12695692
31	0xbd3fd87e	-0.046837322
32	0x3deecbba	0.116599515
33	0x3d8f36c1	0.06992865
34	0x3ddb02ec	0.10693917
35	0x3c196f80	0.009364963
36	0xbde6b031	-0.112640746
37	0x3d5842d2	0.0527981
38	0x3cb2fe14	0.02184967
39	0xbda783f8	-0.08179468
40	0xbdf22694	-0.118237644
41	0x3c85cfee	0.0163345
42	0xbdb6857c	-0.08912179
43	0x3dd2d93f	0.10295343
44	0x3da62aeb	0.08113655
45	0x3d916d6a	0.07100947
46	0x3d26d3ae	0.040729217
47	0x3df42fe0	0.11923194
48	0x3dba1a35	0.0908703
49	0xbd938496	-0.07203023
50	0xbdb483f8	-0.088142335
51	0xbdd8101f	-0.1054995
52	0xbe023a29	-0.12717499
53	0xbd40eed8	-0.04710278
54	0xbda96bd2	-0.08272518
55	0xbcb72c9a	-0.022360135
56	0x3de315b3	0.11088123
57	0x3d2d63e3	0.042331588
58	0x3dc80862	0.09767224
59	0x3e0c8772	0.13723543
60	0xbd0c69e2	-0.034280665
61	0x3d2c0f78	0.04200694
62	0xbe0bae7c	-0.1364078
63	0x3d3233e1	0.043506507
64	0xbd600ae7	-0.054697897
65	0xbd9b5714	-0.07584968
66	0x3db76a21	0.08955789
67	0x3dc5995a	0.0964839
68	0x3cd6d11c	0.026222758
69	0x3d74aa05	0.059732456
70	0x3d0acc9d	0.03388654
71	0x3db01c0d	0.085991
72	0xbd0f9e2e	-0.03506296
73	0x3d9006f4	0.07032576
74	0xbb7def28	-0.0038747285
75	0x3bd001f4	0.006347889
76	0xbddef8ef	-0.10887324
77	0xbcc728e9	-0.0243115
78	0xbbc80fbf	-0.0061053927
79	0x3c0882d8	0.008331977
80	0x3daabe42	0.0833707
81	0xbd74aa49	-0.05973271
82	0xbde545da	-0.11194964
83	0xbe0b06bd	-0.13576789
84	0x3d98f0ca	0.07467802
85	0x3e0a54f0	0.13508964
86	0x3d9f92e3	0.07791688
87	0xbd423e3e	-0.04742264
88	0x3d4ceae9	0.050028715
89	0xbdd4e598	-0.10395354
90	0xbd981641	-0.074261196
91	0xbdec9c09	-0.11553199
92	0xbd53cfb1	-0.05171174
93	0x3dfac60f	0.12244808
94	0x3dc654ac	0.09684119
95	0xbd87f6be	-0.06638859
96	0x3daf17bb	0.08549448
97	0x3da23d67	0.07921868
98	0x3d7fc477	0.062443223
99	0xbdb997c1	-0.09062148
100	0x3dff381b	0.12461873
101	0xbdc1bffd	-0.09460447
102	0x3dd5bdc4	0.104365855
103	0xbbcef63e	-0.0063159754
104	0xbde407ee	-0.11134325
105	0x3cf105e5	0.029421756
106	0x3da9c009	0.08288581
107	0x3d5b831f	0.053591844
108	0x3e0ff1fe	0.14057156
109	0x3dc18e55	0.09450976
110	0xbd3d3992	-0.04619748
111	0xbe05998c	-0.13046855
112	0x3ddd8f2b	0.10818323
113	0xbd75a0d1	-0.05996782
114	0x3dc5c309	0.09656341
115	0xbd49200e	-0.049102835
116	0x3d23a64b	0.03995351
117	0xbc44e676	-0.012017837
118	0x3cabecce	0.02098694
119	0xbe083b6b	-0.13303916
120	0xbd1f93f7	-0.03895947
121	0x3e0c8048	0.1372081
122	0xbd2a26ce	-0.041540913
123	0x3d3f8fff	0.046768185
124	0x3d7d04ca	0.061772145
125	0xbdbb9cfc	-0.09160802
126	0x3c082cee	0.008311493
127	0x3dc113dd	0.09427617
128	0x3da0336f	0.0782231
129	0x3d42e9a5	0.047586102
130	0xbde51631	-0.11185873
131	0x3db88df4	0.090114504
132	0x3df55ee8	0.119809926
133	0x3dad0931	0.08449019
134	0xbdacdd3d	-0.08440635
135	0xbce963e9	-0.028490024
136	0x3d2f5d74	0.042813733
137	0xbd4bbc49	-0.04974011
138	0x3ddf962f	0.10917317
139	0xbdbc085c	-0.09181282
140	0x3d399146	0.04530456
141	0xbcf9de4c	-0.030501507
142	0xbdfc5f5e	-0.12322877
143	0xbc1ca376	-0.0095604565
144	0x3d1028c1	0.035195116
145	0x3d3c24c2	0.045933492
146	0x3dc933ef	0.09824359
147	0xbe0d8803	-0.13821416
148	0xbcf5929b	-0.029977133
149	0xbdb6e3e2	-0.08930184
150	0x3a94ce64	0.0011353013
151	0x3dd4be0a	0.103878096
152	0x3d9455ff	0.07242965
153	0xbdde1154	-0.10843149
154	0x38372403	4.366414e-05
155	0x3dcf6aaf	0.1012777
156	0xbe07decb	-0.13268583
157	0x3d72f4a8	0.059315354
158	0x3c3a97c1	0.01138872
159	0xbbeddb3b	-0.0072588003
160	0x3dcfd63e	0.10148285
161	0x3de54c9b	0.11196252
162	0x3d80a217	0.06280916
163	0x3b045899	0.002019441
164	0xbc8f60d2	-0.017502222
165	0xbda776ca	-0.08176954
166	0xbcfb25cb	-0.03065767
167	0xbda6cba3	-0.08144309
168	0xbd7fca36	-0.062448703
169	0xbe0b9f3f	-0.13634966
170	0x3e10d00c	0.14141864
171	0x3d4236f6	0.047415696
172	0x3dd54072	0.104126826
173	0x3c3ae73b	0.011407669
174	0xbdb292f8	-0.08719438
175	0xbda35fdb	-0.07977267
176	0xbdb5f8c1	-0.08885337
177	0xbd9102a1	-0.070805795
178	0xbd4be32e	-0.049777202
179	0xbca5732b	-0.020196518
180	0x3cb84878	0.022495493
181	0x3cea6183	0.02861095
182	0xbd646955	-0.055764515
183	0xbd93ddc5	-0.072200336
184	0xbd331dab	-0.043729465
185	0x3ddf68ac	0.109086365
186	0xbdcec2f7	-0.1009578
187	0xbda3d147	-0.07998901
188	0xbe06687b	-0.13125794
189	0xbe024caa	-0.12724558
190	0x3df507ba	0.11964364
191	0xbcfe0eb2	-0.031012867
192	0x3d424196	0.04742583
193	0xbd38f6dc	-0.0451573
194	0x3cf7a09f	0.030227957
195	0x3e093d8e	0.13402387
196	0xbda9d948	-0.08293396
197	0x3d7413c2	0.059589155
198	0x3db4f346	0.08835463
199	0x3dc6799a	0.096911624
200	0x3dba2bbe	0.090903744
201	0x3deac77f	0.11463832
202	0xbceac59b	-0.028658679
203	0xbc196892	-0.00936331
204	0x3dee9707	0.116499
205	0x3db0774e	0.086165056
206	0xbe0220ef	-0.12707876
207	0xbd999fa5	-0.07501153
208	0xbdfd08bb	-0.12355181
209	0x3ce8b291	0.02840546
210	0xbdf269e1	-0.11836601
211	0xbc547d4e	-0.012969328
212	0xbdc52c7e	-0.09627627
213	0x3e013df4	0.1262129
214	0xbccfca96	-0.025365155
215	0x3df9e65c	0.12202141
216	0x3d4f4d52	0.050610848
217	0x3d9b26cf	0.075757615
218	0x3d66e82b	0.056373756
219	0xbcfb7db9	-0.030699598
220	0x3d036e8c	0.032087848
221	0xbcaa85d7	-0.020815773
222	0xbd791000	-0.060806274
223	0x3da324d2	0.07966007
224	0x3df6bf98	0.12048262
225	0x3cf15422	0.029459063
226	0x3e0e227f	0.13880347
227	0x3d6d898f	0.057992514
228	0xbc7e3ae4	-0.01551697
229	0x3c05c718	0.008165143
230	0x3dcc9ed8	0.099912345
231	0xbd3927ef	-0.0452041
232	0xbcddbb3f	-0.027066825
233	0x3bf1fde9	0.007385005
234	0x3d02fbf1	0.03197855
235	0x3df8bebc	0.12145755
236	0x3daaa371	0.08331955
237	0xbdf9c2a6	-0.12195329
238	0x3d0eb476	0.03484007
239	0x3e009f8b	0.12560861
240	0x3d1e9270	0.038713872
241	0xbd8cb96a	-0.068713024
242	0xbd610220	-0.054933667
243	0x3df347b7	0.11878913
244	0xbac584ed	-0.0015069522
245	0xbc6927aa	-0.014230648
246	0x3df798fe	0.12089728
247	0xbc9641e7	-0.018341972
248	0xbd9029b7	-0.070392065
249	0xbdbb3da6	-0.09142618
250	0xbe0b6f0c	-0.1361658
251	0xbdcdcf28	-0.100492775
252	0xbb6b7181	-0.0035925808
253	0x3de7df61	0.11321903
254	0x3dd1bf43	0.102415584
255	0xbc95e077	-0.01829551

encoder2.weight_hh_l0 f4 [200, 50]
0	0xbd8d4a97	-0.068989925
1	0x3e01e39b	0.12684481
2	0xbe07a552	-0.13246658
3	0x3dae9fe5	0.08526591
4	0xbd7c89a0	-0.061654687
5	0xbd5897b1	-0.05287904
6	0xbdabfeec	-0.08398232
7	0xbde1c118	-0.11023158
8	0x3dd09fe9	0.101867504
9	0xbdc72618	-0.09724063
10	0xbda5e490	-0.081002355
11	0xbe0e6be8	-0.1390835
12	0x3cfd573c	0.030925386
13	0x3ce82a21	0.028340401
14	0xbde729a1	-0.11287237
15	0xbcefb0a5	-0.029259035
16	0xbdbf3eac	-0.093381256
17	0xbc877b3c	-0.016538255
18	0x3db2c902	0.087297454
19	0xbd2df40d	-0.042469073
20	0x3dfae3b0	0.12250459
21	0x3d8ad1ef	0.06778323
22	0x3df07035	0.11740152
23	0x3d9500bf	0.07275533
24	0x3d802500	0.06257057
25	0x3de7d69b	0.113202296
26	0xbc0fb591	-0.008771316
27	0x3de410db	0.111360274
28	0x3de890d4	0.11355749
29	0xbe0fecca	-0.14055172
30	0xbde0e38f	-0.10980903
31	0xbbf848fc	-0.00757706
32	0x3c0bf770	0.00854288
33	0x3d8898e6	0.06669788
34	0x3cb0ff43	0.021606093
35	0x3cf316d8	0.029673979
36	0xbcf5b772	-0.0299947
37	0x3d3516b8	0.04421112
38	0x3cea23d1	0.028581532
39	0xbdc7b3aa	-0.09751065
40	0xbdc06842	-0.093948856
41	0xbd5c5201	-0.053789143
42	0xbdf54c12	-0.119774
43	0x3db76fa9	0.08956844
44	0x3c9a7fd8	0.018859789
45	0x3dd07524	0.10178593
46	0xbd096421	-0.033542756
47	0x3cdc6870	0.026905268
48	0xbd82bde7	-0.06383877
49	0x3ce3f297	0.027825637
50	0x3cdafaef	0.026730983
51	0x3c01f463	0.0079318015
52	0xbd85929e	-0.06522106
53	0x3df0f35e	0.117651686
54	0xbb93a61d	-0.004505886
55	0xbd848eec	-0.06472573
56	0xbe0b2080	-0.13586617
57	0xb977bc21	-0.00023625839
58	0xbd1eb6da	-0.0387486
59	0xbd4a4fe6	-0.049392603
60	0xbd932e2b	-0.0718654
61	0xbd929f14	-0.07159248
62	0x3e0c9518	0.1372875
63	0xbe0c917e	-0.13727376
64	0x3dd82f65	0.10555915
65	0x3d856e0a	0.06515129
66	0xbd8035c2	-0.062602535
67	0xbd3b9564	-0.045796767
68	0xbda16258	-0.07880086
69	0xbcc96c2c	-0.024587713
70	0x3dd87335	0.10568849
71	0xbd9614e3	-0.073282026
72	0x3aec9f4c	0.0018052845
73	0xbddef6ef	-0.108869426
74	0xbd877015	-0.06613175
75	0xbdeafd4e	-0.11474095
76	0xbd35993c	-0.04433559
77	0xbdd80d29	-0.10549385
78	0x3d1baf79	0.03800914
79	0x3def2d14	0.1167852
80	0x3d8da32f	0.069158904
81	0x3c6cc1f2	0.014450537
82	0x3dd40bd0	0.103538156
83	0xbd898970	-0.06715667
84	0x3e043e31	0.12914349
85	0xbd0e659e	-0.03476488
86	0x3d962af3	0.07332411
87	0x3d26c757	0.04071745
88	0x3e0427b6	0.12905774
89	0x3dc8cf8a	0.0980521
90	0xbdc7b8ee	-0.097520694
91	0xbc69b242	-0.014263691
92	0xbd7aa9d2	-0.06119711
93	0xbd63fc43	-0.055660497
94	0xbd9d0b8c	-0.07668218
95	0xbd8d7877	-0.069077425
96	0xbcf430d7	-0.029808445
97	0xbc8e6fbb	-0.017387262
98	0x3decce8a	0.11562832
99	0x3d424aeb	0.04743473
100	0x3de0c2c9	0.10974652
101	0x3dec52f0	0.115392566
102	0xbcb2585e	-0.021770652
103	0x3dc1fa2f	0.09471547
104	0x3e00d583	0.12581448
105	0xbca2921d	-0.019845063
106	0xbdb58de2	-0.088649526
107	0x3c98c30a	0.01864769
108	0xbcd12a56	-0.025532883
109	0x3daac440	0.08338213
110	0x3dac4140	0.08410883
111	0x3d2ea158	0.04263434
112	0x3dfd40d9	0.12365884
113	0xbd2b7b3e	-0.04186558
114	0xbd9ce041	-0.076599605
115	0x3de35d3b	0.11101767
116	0xbd49df5c	-0.049285278
117	0xbd2d7f89	-0.042357955
118	0xbc861ccb	-0.016371151
119	0x3d4ab7f7	0.04949185
120	0xbdc0f0bd	-0.09420917
121	0x3d80f803	0.062973045
122	0xbdfe66ad	-0.124219276
123	0xbdb1504e	-0.08657895
124	0xbda4dc9e	-0.08049892
125	0xbc11f0d6	-0.008907517
126	0x3cd1281c	0.025531821
127	0x3d48fc6a	0.049068846
128	0xbe026239	-0.12732781
129	0x3da18e26	0.07888441
130	0xbd3e9ee0	-0.046538234
131	0xbc2412b6	-0.010014227
132	0xbd389316	-0.045062147
133	0x3ca0f983	0.019650226
134	0x3c661f8b	0.014045606
135	0x3dc7c3a9	0.09754116
136	0x3d8e0dac	0.069362015
137	0xbdf02a34	-0.117267996
138	0xbd9c5a8f	-0.0763446
139	0xbcbe0e92	-0.023200307
140	0xbd95a7b4	-0.073073775
141	0xbdbe6b4f	-0.09297811
142	0xbd1e67bf	-0.03867316
143	0xbd3dd96a	-0.04634992
144	0x3d5669f2	0.05234713
145	0xbc1dd44c	-0.009633135
146	0xbd8355de	-0.06412862
147	0xbc90b405	-0.017663965
148	0x3df03b36	0.117300436
149	0xbe0eb839	-0.13937463
150	0x3cd8c73a	0.026462186
151	0xbda569b1	-0.080768
152	0x3d449776	0.047996007
153	0x3def99fb	0.11699291
154	0xbda468f8	-0.08027834
155	0x3b2fe8ce	0.0026841643
156	0xbd4157cc	-0.04720287
157	0xbe0cc4e0	-0.13746977
158	0xbe0b9ebc	-0.13634771
159	0xbe0ec64c	-0.13942832
160	0xbce6b2ba	-0.028161395
161	0x3dc19eea	0.094541386
162	0xbe06f6c9	-0.13180079
163	0xbd7157eb	-0.058921736
164	0xbdca7fc9	-0.09887654
165	0x3d7820c9	0.06057814
166	0x3d81c96e	0.06337248
167	0x3d9d6120	0.07684541
168	0xbd7e4de9	-0.06208602
169	0xbd3ce430	-0.046116054
170	0xbda2293c	-0.07918021
171	0xbe05dd73	-0.13072757
172	0xbdf21210	-0.118198514
173	0x3d5d1be2	0.05398167
174	0xbce64e9a	-0.028113652
175	0xbdac3957	-0.08409374
176	0x3b6ef2f6	0.0036460734
177	0xbc7ff663	-0.015622708
178	0xbd33dcf5	-0.043911893
179	0xbd95a8d1	-0.0730759
180	0x3d2884ba	0.041142203
181	0xbd7f2ca2	-0.062298425
182	0x3d2b0cb9	0.04176018
183	0x3d2b3162	0.041795142
184	0x3dfc1f21	0.12310625
185	0xbd303786	-0.0430217
186	0xbd4fa1c9	-0.0506914
187	0x3e07856a	0.13234487
188	0x3de9d781	0.11418057
189	0x3d6ff6e9	0.05858508
190	0xbe0cd0e6	-0.13751563
191	0xbd9c1ee3	-0.07623079
192	0xbd42bd3d	-0.047543753
193	0x3d4b6093	0.049652647
194	0x3d9b6df6	0.07589333
195	0x3c959641	0.018260123
196	0xbcd8814b	-0.02642884
197	0x3d6673e7	0.056262877
198	0xbc803f80	-0.01565528
199	0xbc667a44	-0.014067236
200	0x3c6586cf	0.014009192
201	0x3d8ae3e9	0.06781752
202	0x3bab0a09	0.005219702
203	0x3de485c2	0.11158325
204	0x3e0771da	0.13227025
205	0x3d4231da	0.047410823
206	0xbcaa43ba	-0.020784248
207	0xbda4200c	-0.08013925
208	0x3e0bc884	0.1365071
209	0x3db7080b	0.08937081
210	0xbd816f5a	-0.06320067
211	0xbd180da6	-0.03712239
212	0x3e1024fc	0.14076608
213	0xbd2ff846	-0.04296138
214	0x3db3d311	0.08780492
215	0x3c1c12dc	0.009525981
216	0x3dff8fbe	0.124785885
217	0x3e05f4a0	0.13081598
218	0xbe084737	-0.13308416
219	0x3c695960	0.0142425
220	0xbda2b1ff	-0.07944106
221	0xbd414d94	-0.047193125
222	0x3a83d319	0.0010057419
223	0xbdde55be	-0.10856198
224	0xbd8f806d	-0.07006917
225	0xbda3cb93	-0.07997813
226	0xbe03905a	-0.12848035
227	0xbd6d8031	-0.05798358
228	0x3dba38a8	0.090928376
229	0x3d611ca4	0.054958954
230	0x3d9ce738	0.07661289
231	0xbb5ac324	-0.0033380473
232	0xbcb9112f	-0.022591202
233	0xbd52ebbd	-0.05149435
234	0xbe0fd666	-0.1404663
235	0xbdd59595	-0.10428921
236	0x3b19fd34	0.0023496868
237	0xbbd2e5de	-0.0064360937
238	0xbe016a09	-0.12638105
239	0xbd430066	-0.0476078
240	0x3d3d30ce	0.046189122
241	0xbd8b1ba8	-0.067923844
242	0x3dc75055	0.09732119
243	0xbdf52204	-0.119693786
244	0x3d1925ff	0.03738975
245	0xbd4f0f85	-0.05055191
246	0x3d66e39b	0.056369405
247	0xbd03a218	-0.032137007
248	0x3cf9590b	0.030437967
249	0x3e030daa	0.12798181
250	0x3e0d8516	0.138203
251	0x3da38aa3	0.07985427
252	0x3dfca797	0.12336653
253	0xbe00201f	-0.12512253
254	0xbd808ceb	-0.06276878
255	0xbc11e8c7	-0.008905596

encoder2.bias_ih_l0 f4 [200]
0	0xbda6d25a	-0.0814559
1	0x3dc6834a	0.0969301
2	0xbd035c84	-0.03207065
3	0x3bb15d73	0.0054127513
4	0x3d9ad840	0.07560778
5	0x3df7001e	0.12060569
6	0x3dc25168	0.09488183
7	0x3d0f8e17	0.035047617
8	0xbd8bdff6	-0.068298265
9	0xbcfbdb0f	-0.030744104
10	0x3db74852	0.08949341
11	0xbd2f603a	-0.04281638
12	0x3def0bb1	0.11672152
13	0xbd6135ac	-0.054982826
14	0xbdd9267c	-0.106030434
15	0xbd883dbc	-0.066524
16	0xbd3fb58b	-0.046803992
17	0x3d67e921	0.056618813
18	0xbe0e1dab	-0.13878505
19	0x3ded0a73	0.11574259
20	0x3df44a8d	0.11928282
21	0xbdaf88aa	-0.085709885
22	0x3de71e5e	0.11285089
23	0xbde4255a	-0.11139937
24	0xbd7b7483	-0.06139041
25	0xbde0820a	-0.10962303
26	0xbd4ae890	-0.049538195
27	0x3da4320e	0.0801736
28	0x3db7a84f	0.08967649
29	0xbd4c2077	-0.04983565
30	0xbdfc2b24	-0.12312916
31	0xbda9328b	-0.082615934
32	0x3c5a18a9	0.0133115435
33	0x3c04def3	0.008109796
34	0xbcd1d9e9	-0.025616603
35	0x3b8d4786	0.004311505
36	0xbd7eb792	-0.062186785
37	0x3e0899ea	0.13339964
38	0x3df0cc73	0.117577456
39	0xbdde3ede	-0.10851835
40	0xbd9128b5	-0.070878424
41	0x3e0e2926	0.13882884
42	0xbdea4945	-0.11439756
43	0x3d78e807	0.060768154
44	0x3e0afcb3	0.1357296
45	0xbdc2515d	-0.09488175
46	0x3d4511ea	0.048112787
47	0x3cac6df5	0.021048525
48	0x3e046e8b	0.12932794
49	0x3d91a22e	0.071110114
50	0x3e037151	0.12836196
51	0xbddd137c	-0.10794732
52	0xbb927b01	-0.0044702296
53	0x3d8aea59	0.067829795
54	0xbddde955	-0.1083552
55	0xbcb83ea4	-0.022490807
56	0xbd03e788	-0.032203227
57	0x3c233f49	0.009963819
58	0xbdd095bf	-0.10184812
59	0xbd808033	-0.06274452
60	0xbd43478d	-0.047675658
61	0x3dd0bd78	0.10192388
62	0x3cb6ec81	0.02232957
63	0x3dc90d55	0.09816996
64	0xbdd6899f	-0.10475468
65	0x3d732584	0.05936195
66	0xbdce104a	-0.10061701
67	0x3d9e4e9b	0.077298366
68	0xbd4aa888	-0.04947713
69	0xbd4b2e9e	-0.049605004
70	0xbd79a96c	-0.06095259
71	0x3d384846	0.0449908
72	0xbdbc4459	-0.09192724
73	0xbcf9857c	-0.030459158
74	0x3d076086	0.033051036
75	0x3cee1208	0.029061332
76	0x3e09a8ba	0.1344327
77	0xbdc1f242	-0.09470035
78	0x3d837cf4	0.06420317
79	0xbda6046d	-0.08106313
80	0xbde2a2f9	-0.11066241
81	0xbe001601	-0.12508394
82	0xbdd9e414	-0.106392056
83	0xbd32baf9	-0.043635342
84	0xbe098eeb	-0.13433425
85	0xbdc7ad58	-0.097498596
86	0xbc81d159	-0.015846895
87	0x3c9e2c79	0.019308316
88	0xbc8b112b	-0.01697596
89	0x3dd3d594	0.10343471
90	0xbdbe6b14	-0.09297767
91	0x3e0a1b70	0.13487029
92	0x3e00a1f3	0.12561779
93	0x3da3ed06	0.08004193
94	0xbdf88859	-0.12135381
95	0xbdc8ef61	-0.09811283
96	0x3de36d81	0.111048706
97	0x3de943b8	0.113898695
98	0xbd7460c8	-0.05966261
99	0xbc16eae7	-0.0092112785
100	0x3abd1c7e	0.0014428047
101	0x3e09150f	0.1338694
102	0x3d38ec06	0.045146964
103	0x3d2e0eba	0.042494513
104	0x3d2d27a4	0.042274132
105	0x3dac8b32	0.08424987
106	0x3c9fcab2	0.019505832
107	0xbddd321d	-0.10800574
108	0xbdf96206	-0.121768996
109	0xbe042d76	-0.12907967
110	0xbd10c7ec	-0.03534691
111	0x3d569aa5	0.052393574
112	0xbd2f9876	-0.042870007
113	0x3d7378cc	0.059441373
114	0x3d5bd764	0.05367221
115	0xbde44f20	-0.111479044
116	0xbd1db475	-0.038502175
117	0x3da711d1	0.08157695
118	0xbdc5fcf3	-0.09667387
119	0x3ca3549b	0.019937804
120	0x3dba1ea0	0.090878725
121	0xbddfbd43	-0.10924771
122	0xbc3146d3	-0.0108201085
123	0xbca8e466	-0.020616721
124	0xbb51978c	-0.0031981198
125	0xbd877bdb	-0.066154204
126	0xbc8ada27	-0.016949726
127	0xbe0f097b	-0.1396846
128	0x3dcffe02	0.1015587
129	0xbd4f9231	-0.05067653
130	0x3d5389c2	0.051645048
131	0x3d77ad6b	0.06046812
132	0x3d8a643c	0.067573994
133	0xbd7a4321	-0.061099175
134	0x3de5eb5c	0.11226532
135	0x3dfaae78	0.122403085
136	0x3dcd1379	0.1001348
137	0x3db16b32	0.08663024
138	0xbdf1daae	-0.11809288
139	0xbe01d03c	-0.12677091
140	0x3db9d7ea	0.090743855
141	0x3cf7140c	0.030160926
142	0xbb3612c9	-0.0027782193
143	0xbddd2086	-0.10797219
144	0xbd567e6a	-0.05236665
145	0xbe078f75	-0.13238318
146	0xbd7059ff	-0.058679577
147	0x3c9893f2	0.018625233
148	0xbb275f90	-0.0025539137
149	0xbd2af74c	-0.041739747
150	0x3d2f172f	0.04274672
151	0x3e027bd6	0.12742552
152	0xbb936f86	-0.0044993786
153	0xbc416c37	-0.011805586
154	0x3de22e0f	0.11043941
155	0xbe062faa	-0.1310412
156	0xbc4c4268	-0.012467004
157	0xbd059a28	-0.032617718
158	0x3d112363	0.035434138
159	0xbdd7e85b	-0.10542365
160	0x3cdcf7d7	0.026973648
161	0xbd901f74	-0.07037249
162	0xbe03b00d	-0.12860127
163	0x3aa54b89	0.0012611012
164	0xbd89ffad	-0.067382194
165	0x3df54e3a	0.11977811
166	0x3ddd1463	0.10794904
167	0xbc789730	-0.015172765
168	0xbcb9581b	-0.02262502
169	0xbc02791c	-0.007963445
170	0xbdbfd330	-0.09366453
171	0x3decc15e	0.11560319
172	0xbd91f197	-0.07126158
173	0xbd4f38ac	-0.050591156
174	0xbda36688	-0.07978541
175	0xbc31401b	-0.010818507
176	0xbca065cc	-0.01957979
177	0xbe1028a0	-0.14077997
178	0x3e097d8d	0.134268
179	0xbcddf422	-0.02709395
180	0xbd84d964	-0.064867765
181	0xbde6bb29	-0.11266167
182	0xbe081e54	-0.1329282
183	0xbd298512	-0.04138667
184	0x3ddd2b77	0.10799306
185	0xbc38429a	-0.011246348
186	0xbd3f2656	-0.04666742
187	0x3dd30b95	0.103049435
188	0xbd3acbd9	-0.04560456
189	0xbc93e77c	-0.018054716
190	0xbd810cc4	-0.06301263
191	0xbccb7668	-0.024836734
192	0x3e02f84e	0.12790033
193	0xbdc8f182	-0.09811689
194	0xbcaabb82	-0.020841364
195	0x3d8ec094	0.06970325
196	0x3cb966eb	0.022632083
197	0x3c3841f7	0.011246196
198	0x3d936176	0.071963236
199	0xbd8f5fd2	-0.07000698
